rl_trainer/models/running-competition/DuelingDQN/run1/trained_model/qnetwork_target_5300.pth (torch, 177141 bytes, 15 tensors)

encoder.net.0.weight f4 [8, 1, 3, 3]
000000 6b 13 bc c0 22 7c 72 40 fe 35 08 c0 a6 9c df bf
       -5.8773704 3.7888265 -2.1282954 -1.746968
000010 06 63 9a 3f 5a 5d e0 40 5b 16 28 c0 e8 ea 3e 41
       1.206147 7.0113955 -2.6263645 11.93235
000020 86 c2 dc 3d 3e a6 11 c0 47 5e 0d c1 86 63 41 c0
       0.1077929 -2.2757716 -8.835517 -3.0216994
000030 97 63 f4 bf 37 f8 a0 40 20 4e a9 bf 7e 2d 39 40
       -1.9092892 5.0302997 -1.3226967 2.8934016
000040 de ef 16 40 7b 9a 7f 41 a9 f8 37 40 19 1f e9 3f
       2.3583903 15.975215 2.874552 1.8212615
000050 64 13 57 40 33 18 fc 3f bc 8a 88 bf ef e2 e4 40
       3.3605585 1.9694885 -1.0667338 7.152702
000060 27 66 1a 3f 9e 13 e5 c0 76 4e 5e 41 f4 70 80 c0
       0.6031212 -7.1586447 13.8941555 -4.013788
000070 73 05 6b c1 1d 4e 85 40 3d 4d d6 3f e9 54 3d 41
       -14.68883 4.1657853 1.6742321 11.83323
000080 20 ee af 40 8e 3a 41 c0 d8 37 20 c1 5c 05 b9 c0
       5.497818 -3.019199 -10.013634 -5.781904
000090 5e bb 14 c0 37 10 6b 41 28 e2 03 be 7a c2 c1 c0
       -2.323936 14.691459 -0.1287924 -6.05499
0000a0 21 99 2e 3f 7d 72 90 40 bd 12 d2 c0 4b e6 9c c0
       0.68202406 4.5139756 -6.5647874 -4.903112
0000b0 5f b0 e0 bf b0 d5 91 40 1a 3b 50 40 4b ec cb 3f
       -1.7553824 4.557335 3.2536073 1.5931486
0000c0 fc 5a 9b 40 a1 cf 98 40 10 a2 9a 40 b9 49 bd 40
       4.8548565 4.7753453 4.832283 5.9152493
0000d0 21 32 f3 40 1e 8f 12 41 30 99 39 41 4e fb 3c 40
       7.5998693 9.159941 11.599899 2.9528384
0000e0 3e 61 92 3f 91 84 e0 c0 31 63 e4 c0 66 ed 35 bf
       1.1435926 -7.0161824 -7.1371083 -0.71065366
0000f0 42 ab 8a c0 9c 78 61 c0 d9 f7 95 bf b6 c6 67 40
       -4.3334055 -3.5229864 -1.1716262 3.6215034
000100 4f 1a a0 40 82 50 68 40 f7 f9 bb 40 e6 94 d5 40
       5.0032115 3.6299138 5.8742633 6.674426
000110 57 de bb 40 e7 6a 3b 40 97 15 53 40 d3 fb 00 bb
       5.870891 2.9283998 3.2981927 -0.001968135

encoder.net.0.bias f4 [8]
000000 ab 3a 28 ba c7 1e a4 3e ca 97 5a 3f ce 5f 37 40
       -0.00064174336 0.3205473 0.8538786 2.8652225
000010 17 60 d0 3d 1a d8 a4 bf 4e 62 a7 3f 84 9c 39 be
       0.10174578 -1.2878449 1.3076875 -0.18126112

encoder.net.3.weight f4 [8, 8, 3, 3]
000000 90 81 99 c0 b4 50 9c 3f f9 f3 bc 40 69 cf a0 c0
       -4.7970657 1.2212129 5.904782 -5.0253186
000010 de bb 37 c0 4e 91 6e 40 4c 7e e3 bf 74 97 1f c1
       -2.8708415 3.7276187 -1.7772918 -9.974476
000020 22 16 5e c0 3d 9e 95 c0 20 a8 83 40 6f a3 1d 40
       -3.4701009 -4.675566 4.114273 2.4631002
000030 50 e7 f2 be 3a c3 32 be a1 05 1d 40 18 7b 61 bf
       -0.47442102 -0.17457286 2.4534686 -0.8807845
000040 e7 76 a7 c0 d3 d7 e0 bf 45 20 f9 3e fd 41 a9 40
       -5.2332644 -1.7565864 0.48657432 5.289305
000050 fb 59 a7 40 b4 b2 1d c0 b2 a1 17 3f 85 12 7d 40
       5.229734 -2.4640322 0.592311 3.9542553
000060 69 80 ba bf cc 00 8b be a7 37 91 bf be 78 e6 c0
       -1.4570438 -0.27149045 -1.1345109 -7.202239
000070 28 0a 22 40 88 88 ce 40 7a c6 87 c0 db 25 08 c0
       2.53187 6.4541664 -4.242978 -2.1273105
000080 57 b0 6e 40 45 0e 24 3f d6 ee 0d c0 1d 27 86 40
       3.729513 0.64084274 -2.2177024 4.1922746
000090 ae ea d3 c0 93 82 33 40 36 07 3f 41 d1 ad 9e c0
       -6.6223974 2.8048446 11.9392605 -4.958718
0000a0 f3 46 2d c0 7d cc 3b 41 29 fc 20 c0 40 13 a6 c0
       -2.7074554 11.737424 -2.5153906 -5.18985
0000b0 04 05 9b 40 a4 05 24 bf b9 61 22 3e 3c 43 bc 3f
       4.8443623 -0.64071107 0.1585759 1.4708018
0000c0 d1 04 0c c0 cf 6f 2b c0 81 b8 af 3f c2 c6 49 3e
       -2.187794 -2.6786993 1.3728181 0.19704726
0000d0 ab c1 cd bf 6a 70 a2 3e a4 fd 11 c0 54 59 12 c0
       -1.6074728 0.3172639 -2.281106 -2.2867022
0000e0 cd 1b dd bf de 46 41 3f 8b ae a3 bf 28 91 4d c0
       -1.7274109 0.7549876 -1.2787641 -3.2119846
0000f0 b0 f0 ba 40 db f8 46 c0 df 78 d2 c0 f3 7a 24 bf
       5.841881 -3.108939 -6.577255 -0.64250106
000100 57 2c 20 bc 41 36 b7 3f 92 d1 01 c0 0b 37 62 c0
       -0.009776196 1.4313432 -2.0284162 -3.5346096
000110 c5 8c ab be 8a 65 db bf 2f 1d 82 c0 fe d2 19 c0
       -0.33505836 -1.7140362 -4.0660625 -2.403503
000120 ce 52 87 3e 41 69 e6 3f 4b 41 ce 3f 5b 7f 00 3f
       0.26430362 1.8000871 1.6113676 0.5019433
000130 0e 64 c2 3f af 7f 14 40 51 9d a0 3f 01 f2 c4 3f
       1.5186784 2.3202932 1.2548009 1.5386354
000140 a4 ec 27 40 0b bc c6 be bb e6 ac 3e a4 6b d0 3e
       2.6238184 -0.3881534 0.33769783 0.40707123
000150 ea d5 2e 3e f9 8c 8a bf f7 7b e2 bc 0e 30 6e 3f
       0.17073789 -1.0824271 -0.027647002 0.93042076
000160 69 7d 2f 3e b3 f7 99 bd 0a d1 9e 3f 84 6c f1 3f
       0.17137684 -0.07517948 1.2407544 1.8861241
000170 ad c6 1f 40 f2 d4 ca 3f dd c2 1c 40 82 5b f2 3f
       2.4965012 1.5846236 2.4493935 1.8934176
000180 0f 55 6e 3f 6e 24 13 40 d7 da dd 3f 40 a7 1c bf
       0.9309854 2.2990985 1.733241 -0.61192703
000190 fe 72 a8 bf fb c2 0b 3f 83 d1 11 c0 4e da 85 c0
       -1.3160093 0.5459439 -2.2784126 -4.1828985
0001a0 2a 9e 29 c0 bf 2f e8 be bf 15 9d c0 fa 4c 43 c0
       -2.6502786 -0.45348927 -4.9089046 -3.0515733
0001b0 fc d2 68 bf 62 f0 9a bf 72 ca 33 bd f8 39 33 3e
       -0.90946937 -1.2104609 -0.04389424 0.17502582
0001c0 88 53 d6 c0 17 da 0d c0 a8 5a 00 40 a3 de 09 c0
       -6.6976967 -2.2164361 2.0055332 -2.1542137
0001d0 65 15 1d c0 56 44 2e 40 da 35 0e 40 7e cd 23 40
       -2.4544308 2.722921 2.2220368 2.5594172
0001e0 32 b2 7d 40 5d d8 5c 40 6c cd 61 40 41 2f 51 40
       3.9640012 3.4507058 3.528163 3.2685091
0001f0 0c a4 2a 40 6d f6 54 40 06 3a 34 3f 71 7d dc 3f
       2.6662626 3.3275406 0.70401037 1.7225782
000200 81 c3 ea bf ff a2 db bf d9 a9 80 c0 eb bd 5e c0
       -1.8340913 -1.7159117 -4.0207334 -3.4803417
000210 d2 05 7a c0 68 6c 26 c1 b6 a1 73 c0 e6 e2 47 40
       -3.9066052 -10.401466 -3.806745 3.1232238
000220 11 78 10 40 92 4f 32 40 01 e2 7a 40 fc e6 3b 40
       2.2573283 2.7861066 3.9200442 2.9359732
000230 11 1b 67 40 12 81 65 40 80 aa 3b 40 ab 69 7a 40
       3.611027 3.5860028 2.9322815 3.9126995
000240 f5 2c 45 3f 71 94 38 40 cb 05 47 40 07 8f 91 40
       0.77021724 2.8840601 3.1097286 4.5487094
000250 1d 43 a4 40 dc a5 57 40 46 ff c4 40 22 30 c6 40
       5.1331925 3.3694983 6.1561613 6.1933756
000260 b6 7d 84 3f 58 45 11 bf c7 e0 b3 3d 3a 30 e3 be
       1.0350864 -0.56746435 0.08783107 -0.4437273
000270 6f 7a b2 3f cd 85 02 3f ce af 0d c0 48 94 04 3f
       1.3943614 0.50985414 -2.2138553 0.5178876
000280 2b ec 40 40 06 55 09 c0 c1 2e c4 40 d5 21 c0 40
       3.0144145 -2.1458144 6.1307073 6.00413
000290 75 59 23 40 70 e4 eb 40 92 15 dc 40 0b aa 1d 40
       2.552335 7.3716354 6.877633 2.4635036
0002a0 0c 39 e0 40 5c 10 d0 40 94 d1 6b 3d b9 d0 33 bf
       7.0069637 6.501997 0.057572916 -0.7024036
0002b0 55 03 9f be d1 e7 a3 3f f6 0b c8 bf 61 80 20 c0
       -0.3105723 1.280512 -1.562865 -2.5078356
0002c0 a4 a0 c9 be 0e 8d 84 3d 21 e3 40 bf ad 7b 96 bf
       -0.39380372 0.064722165 -0.7534657 -1.1756493
0002d0 7d 49 26 40 4f be 69 bf 2b 3a f5 3e 4c c8 cf ba
       2.5982354 -0.9130601 0.4789594 -0.001585254
0002e0 ec aa 4a be a8 89 f1 3f e7 f4 52 40 2c 7c 1e 40
       -0.19791764 1.8870134 3.2961977 2.4763288
0002f0 83 f8 59 3f 71 ad 1e c0 f0 2b 2a c0 5a 34 68 c0
       0.85144824 -2.479336 -2.6589317 -3.6281953
000300 37 7f 5d c0 30 5a 83 c0 13 3b 8f c0 02 3e 5b c0
       -3.4608896 -4.104759 -4.475961 -3.4256597
000310 cb 56 a8 c0 5d ae 7e c0 53 f0 40 c0 99 2f 91 bf
       -5.260595 -3.9793923 -3.0146682 -1.1342651
000320 e1 c8 37 3f ab d5 26 bf a8 48 59 bf e5 b2 1b 40
       0.7179089 -0.6516978 -0.8487649 2.4327939
000330 22 8b 42 c0 62 d7 73 c0 75 06 c0 3f 9a b2 b0 3f
       -3.039742 -3.810021 1.500197 1.3804505
000340 ed 5f c9 be 67 28 d3 bf a6 d7 27 3f a4 f9 9c bf
       -0.39330998 -1.6496705 0.6556343 -1.2263684
000350 0f c1 19 c0 70 4f e8 3e 13 75 e4 bf ee d0 26 c0
       -2.4024084 0.45373106 -1.7848228 -2.606502
000360 bd 91 a9 3e 50 2a eb 3f d6 f8 0e 40 b2 90 34 40
       0.33119002 1.8372288 2.2339377 2.8213315
000370 d4 c8 38 3e 4b 6a bb 3f 8c db 34 40 f9 87 3b bf
       0.1804536 1.4641813 2.8259 -0.7325435
000380 af 1c 9d bf 6a 8b 02 40 7e 1c 4e 40 19 99 94 40
       -1.2274379 2.0397592 3.220489 4.6436887
000390 b5 6a 4c 40 9a 43 20 40 72 4f 81 40 98 54 6f 40
       3.1940129 2.504126 4.040948 3.7395382
0003a0 e1 10 1f bf 3d 8d 72 40 07 a1 63 c0 07 13 b1 c0
       -0.6213513 3.7898705 -3.5567033 -5.5335727
0003b0 bc f6 61 bf 32 1e e2 bf a3 14 9f c0 86 47 6b c0
       -0.8826711 -1.7665465 -4.971269 -3.6762404
0003c0 e6 e1 e2 bf 1e 10 76 c0 82 27 41 c0 e5 4a c5 3f
       -1.7725189 -3.8447337 -3.0180364 1.5413481
0003d0 cb ac 94 40 f6 f3 fd 40 ce a2 b1 40 24 b7 b0 40
       4.646093 7.9360304 5.5511236 5.522356
0003e0 9f 79 0d 41 24 3d d4 40 80 73 99 40 f8 85 ab 40
       8.842193 6.6324635 4.795349 5.3601036
0003f0 e4 90 9f bf 42 60 27 bc 47 fa 94 40 2b b3 ab 3f
       -1.2466092 -0.010215821 4.6555514 1.3414053

encoder.net.3.bias f4 [8]
000000 11 3a bd 40 e2 b4 d5 3d 24 ef 8a 3f fc 2a 63 c0
       5.913338 0.10434891 1.085423 -3.5494986
000010 1e 7c d2 40 c4 57 05 c0 85 b1 62 be a1 c8 b2 3f
       6.577651 -2.0834818 -0.22138031 1.3967477

feauture_layer.0.weight f4 [64, 512]
000000 54 03 f6 3b 1f 89 36 3d a8 13 38 bc 53 8a 1f 3d
       0.007507721 0.044564363 -0.011235155 0.038950276
000010 4a bb 9e bc 87 60 fa 3c 89 3c 39 bd a0 f9 11 bc
       -0.019376416 0.030563606 -0.045223746 -0.008909613
000020 ea 98 43 bc 6d a8 52 3c b1 d6 3a 3c 24 30 05 3d
       -0.011938313 0.012857539 0.0114037255 0.032516614
000030 9e b1 48 bc 92 59 82 bb b8 95 cc 3c f9 0e 93 bc
       -0.0122493785 -0.003977963 0.024973735 -0.017951475
000040 d8 cb 09 3d 4c 60 d1 bc ef 3b 68 bb 45 7e 05 bc
       0.033641666 -0.025558613 -0.0035436114 -0.008147781
000050 59 f5 69 3c cb 00 ec 3c 39 73 39 bc 05 48 10 bd
       0.014279687 0.028808972 -0.011318975 -0.035224933
000060 90 d7 89 3c 11 0b 93 3c 60 1f b8 3c 54 80 f6 bc
       0.016826421 0.017949613 0.022475898 -0.030090488
000070 34 52 0d 3d f3 e4 44 3d d7 b0 23 3c 8b 5c 17 bd
       0.034502223 0.048069905 0.009990892 -0.03695349
000080 f9 a3 d6 3c d3 5d e3 bc 36 2b f0 3b 77 10 41 3c
       0.026201235 -0.0277547 0.00732937 0.011783711
000090 d0 cb 7b bc 77 55 67 3c fe 2f 3f bd 2f c6 24 3c
       -0.015368417 0.0141194975 -0.04667663 0.010057016
0000a0 35 d4 05 bd 1f a5 23 bc 44 cf 29 b9 31 2c 30 3d
       -0.03267308 -0.009988098 -0.00016194308 0.043010894
0000b0 81 38 81 bc e4 1d d1 3c c4 b9 62 bc 1f 40 e6 bc
       -0.015774013 0.025526948 -0.013838235 -0.028106747
0000c0 92 93 31 bd 3b 67 3b bd 43 da 20 3d a4 95 34 bc
       -0.043353625 -0.045752745 0.03927065 -0.011022005
0000d0 d0 aa 10 3b 29 17 02 3c 3e aa d3 3c 09 9e f3 3c
       0.0022074468 0.007940092 0.025838014 0.029738443
0000e0 47 be fa 3c 2a 89 0b bd 92 fa 43 39 5e 3b d6 bc
       0.03060831 -0.034066357 0.00018689994 -0.026151355
0000f0 f7 d9 ce bc bc 6c da 3b 3e 81 1a 3d b3 13 0d bd
       -0.025250418 0.006665794 0.03772091 -0.034442615
000100 97 db c1 3c 70 b8 c1 bc 3d 2e 5a bc d0 48 fc 3c
       0.023664279 -0.023647517 -0.013316688 0.030796438
000110 3f f5 78 bc 77 4e 9a ba 4d c5 0e bd a4 f1 04 3d
       -0.01519519 -0.0011772652 -0.03485613 0.03245701
000120 35 4c 0e bc bd dc 0e bd 14 86 05 3c 12 82 14 bd
       -0.008685161 -0.03487848 0.0081496425 -0.036256857
000130 3f f3 23 bd 07 15 2e bb e4 73 ed 3c 40 7b 9b bc
       -0.0400269 -0.0026562826 0.028985925 -0.018979669
000140 a0 54 a6 3c ab 38 0e 3d 1b f1 cf 3c 7d 3c e4 bc
       0.020304024 0.03472201 0.025383523 -0.027860874
000150 90 3e 1c bc 38 a6 9b bc 0d fc 2a bd d3 3c fe bb
       -0.0095364 -0.019000158 -0.04174428 -0.0077587157
000160 ea 69 0b 3d a1 f8 0a 3d 4b 43 96 ba 3f ed a4 3b
       0.034036554 0.033928517 -0.0011464147 0.0050331648
000170 19 97 c2 bc cc f4 ed 3c 7e eb bf bc be 53 10 bd
       -0.02375369 0.029047392 -0.023427721 -0.035236113
000180 12 44 bb 3b 75 99 bf 3c 65 89 34 bd af 20 12 3d
       0.0057149017 0.023388604 -0.044076342 0.0356757
000190 86 48 37 3c ca 98 0b bd 62 e6 56 bc 3a aa 0c 3d
       0.0111867245 -0.034081258 -0.013116451 0.03434203
0001a0 74 60 17 bd 7f ab 91 bc 74 3e 2b 3c c4 02 33 bd
       -0.03695722 -0.017781971 0.010451902 -0.04370381
0001b0 21 a9 94 3c 57 77 9b 3c aa fb bb 3c 0b 26 eb bc
       0.018147053 0.018977804 0.022947151 -0.028704664
0001c0 0d f6 2b 3d 1d 30 f7 bc 2c 4a 2b 3d ce 37 3f bd
       0.0419827 -0.03017431 0.041818783 -0.04668408
0001d0 6b 6a 32 bd 01 1d bb 3c cf b9 b7 39 26 0f e7 3a
       -0.04355852 0.022840979 0.00035042918 0.0017628416
0001e0 ee 42 ee bc d0 52 a5 bc 53 1a 6b bc 76 38 2c bd
       -0.029084649 -0.02018109 -0.014349538 -0.042046033
0001f0 3d 7e f7 ba d8 bc 68 3b 7a cf 8b bb a3 d6 9e 3c
       -0.0018882226 0.003551295 -0.0042666765 0.019389456
000200 d1 ad 39 3d b7 2f c1 3b 1b 6e 50 bc d5 12 be bc
       0.04533178 0.0058955806 -0.012721564 -0.02320234
000210 a1 7b 0a bd fa 85 14 bd f1 cc 81 bb 4c b4 98 bb
       -0.033809308 -0.036260583 -0.0039611985 -0.004660165
000220 c4 6e bd 3c 2a b8 c3 bc 43 07 04 3d 61 ea 00 bd
       0.023124106 -0.023891527 0.032233488 -0.03147352
000230 11 e5 7c 3a 30 ba 26 3d 24 e2 3c 3d c8 cd c2 bc
       0.00096471707 0.040704906 0.046114102 -0.023779765
000240 b3 53 3b 3c 7e c2 06 3c 87 dd 7a bc e5 28 48 bc
       0.01143353 0.0082250815 -0.015311605 -0.012216781
000250 ad d8 48 3c 27 81 f0 bc f8 96 0a 3b 83 ea 7f 3c
       0.012258691 -0.02935846 0.0021147113 0.015619877
000260 1d c9 64 bc 14 5b f7 3c 8a a2 44 3a 3a 61 bc 3c
       -0.013963965 0.030194797 0.0007501027 0.02299558
000270 fe 79 dd 3c b3 96 8c bc 74 e8 8e 3c 38 34 92 bc
       0.02703571 -0.017161703 0.017444827 -0.017847165
000280 3d fb 77 bb d8 3f 68 bc 36 b4 ee bb 71 ea 9c bc
       -0.0037838959 -0.014175378 -0.0072846664 -0.01915476
000290 74 33 b4 3b d5 2e ab ba e5 3e b6 3c 1a e1 60 bc
       0.0054992978 -0.0013060222 0.022246787 -0.013725543
0002a0 7f 84 ad 3b a9 f6 43 bc b8 45 2f bd ca a3 82 3c
       0.005295336 -0.011960664 -0.0427911 0.015947241
0002b0 82 9e 8c 3a 07 1b ad bc f7 43 ca bc 81 b0 89 3c
       0.0010728391 -0.021131052 -0.024690611 0.016807796
0002c0 c4 1e 20 bc 44 5f f5 3c cf 69 9a ba 5a c1 88 3c
       -0.00977296 0.029952653 -0.0011780801 0.01669376
0002d0 62 bd 9d 3c 08 aa 31 bc 46 f1 5c 3c 7f 8f 24 3d
       0.019255344 -0.010843761 0.013485258 0.04017591
0002e0 b0 ed af 3a 24 82 77 3b 2c ef 96 3b c0 aa fa 3c
       0.0013422277 0.003776678 0.004606148 0.030598998
0002f0 dd d9 98 bc e7 72 c0 bc 72 8a d7 3c 1c cd 0e bd
       -0.018658573 -0.02349229 0.026311133 -0.034863576
000300 58 5b ae ba 0e da be bc 52 52 c5 3c 54 da 3c bd
       -0.0013302369 -0.023297336 0.024087105 -0.04610665
000310 a8 0d b9 3c ba 4f 1f 3d 95 59 49 3b 79 a3 2f bc
       0.02258952 0.038894393 0.003072356 -0.010720127
000320 89 cf 27 3d de 5e bf bc 77 6a 07 bc 47 29 b7 bc
       0.040969405 -0.023360666 -0.008265129 -0.02235855
000330 8f 1d 37 bc 95 14 a3 3b 9a 57 3b 3a a8 e6 54 bc
       -0.011176481 0.004976819 0.00071465375 -0.012994446
000340 35 75 47 bd 55 fb 21 bb 2f b0 b6 bb d2 f5 82 3b
       -0.04869576 -0.0024716456 -0.005575202 0.003996589
000350 f8 ff f1 3c d1 d4 1d 3d 9a 2e 02 bd a5 3b 23 bb
       0.029541 0.038533036 -0.031782724 -0.0024907377
000360 7b 03 bc bc 21 05 30 bd b0 20 12 bd fa 79 16 3d
       -0.022950878 -0.04297364 -0.035675704 0.03673742
000370 6a 7b a8 3c 33 41 97 3c d0 c9 a6 3c 2d 66 18 bd
       0.02056666 0.018463707 0.020359904 -0.037206817
000380 a3 ee e1 b9 bc d1 17 3d 7b 48 e2 bc 4b cb 0d 3d
       -0.00043093142 0.037065253 -0.027622452 0.034617703
000390 0d 9c e5 3b b9 01 d7 3c 30 a4 b8 bc ff 66 92 3c
       0.007007128 0.026245939 -0.022539228 0.017871378
0003a0 30 32 2f bd f1 39 93 bb 61 13 3a 3c 14 f8 0e 3c
       -0.042772472 -0.004492991 0.011357159 0.008726139
0003b0 04 dc 05 3d 93 20 21 3d cf 63 1b 3d 3f fa f0 3c
       0.032680526 0.039337706 0.03793698 0.029416202
0003c0 20 43 09 3d a4 25 b5 bb 60 46 1c bd 29 68 a6 bc
       0.03351128 -0.0055281688 -0.038153052 -0.02031334
0003d0 dc a2 17 bc 67 b1 e6 bc f3 a4 96 3c de 19 99 3c
       -0.009255137 -0.028160764 0.0183892 0.018689092
0003e0 95 2b 18 3c ca 04 16 3c 5b f2 0d 3d 5e 14 41 3c
       0.0092877345 0.009156415 0.034654956 0.011784641
0003f0 21 82 30 bd 8a eb 14 bd ff 4c 7a 3c 8a b3 3a 3c
       -0.04309285 -0.03635744 0.015277146 0.0113953445

feauture_layer.0.bias f4 [64]
000000 bf d5 88 3c c5 b1 8e bd cf 02 88 bc 38 1a 7a bc
       0.016703485 -0.069675006 -0.016602902 -0.01526504
000010 57 10 09 3c f6 0b f0 3b 7d 4b 05 bd e5 10 85 bc
       0.008365712 0.0073256446 -0.032542694 -0.016243408
000020 9e 4d e2 3f 76 10 41 3c 94 7c 3c bd 95 cf 3b 40
       1.7679937 0.01178371 -0.046017244 2.9345448
000030 ba e6 16 3e 45 ad 3d bc 83 1d 62 bc 7d ca da bc
       0.14736453 -0.011576955 -0.013800981 -0.026707882
000040 42 7c e9 bc f4 d8 46 bd 35 8b b5 3c 54 89 98 3c
       -0.028501634 -0.048546746 0.022161106 0.01862017
000050 b4 92 62 bc ca 0c 5c 3f 11 29 a9 3e 6c 9c 0d bc
       -0.013828922 0.85957015 0.33039144 -0.008643251
000060 12 10 72 3f 19 df 10 40 af 89 79 bd 17 74 88 3c
       0.9455577 2.2636168 -0.06092232 0.016656918
000070 dd e6 01 3f 32 ee 56 bc 4a b0 a7 bc b2 5e 32 3c
       0.50742894 -0.013118314 -0.020469803 0.010886835
000080 70 7a e8 3c 90 54 09 40 26 a1 07 3c b7 35 c0 bc
       0.028378695 2.1457863 0.008278167 -0.023463113
000090 a5 f1 04 bb 36 8b 38 3f 25 ee 6d 3f 1b 5c 0c bb
       -0.0020285633 0.7208742 0.92941505 -0.0021417204
0000a0 82 7f 7c bc 65 e4 c8 3c 29 75 72 bc 54 08 db 3f
       -0.01541126 0.02452297 -0.014798441 1.7111917
0000b0 b5 d8 ad 3e 88 5a fb 3a 16 af f6 3e f2 83 b1 bc
       0.33954397 0.0019176761 0.48180455 -0.021669362
0000c0 9d 1c 05 bc 7c 2c ee 3f 8a 5d e4 3f f9 19 0a bd
       -0.008124498 1.8607326 1.7841046 -0.033716176
0000d0 e1 fd f2 3c 0e b3 5d 3f 83 a1 94 3f f6 a3 8f bc
       0.029662075 0.8660134 1.161179 -0.017534237
0000e0 2a 7a 6a bc 13 0a 0c bd b1 93 69 3c c6 2d 88 3c
       -0.014311353 -0.034189295 0.014256404 0.016623389
0000f0 c5 3b 5b bc 12 22 4f 3c 1d cd 0e bd e8 77 de bc
       -0.013380949 0.0126424 -0.03486358 -0.027156785

feauture_layer.2.weight f4 [64, 64]
000000 7c cf da bd 6e 95 cf 3d 00 1e c9 bb a0 11 2b bd
       -0.10684106 0.10135923 -0.0061376095 -0.041764855
000010 14 fe 8d 3d d2 d3 f4 bd be 4c 92 3d 80 15 18 bb
       0.06933227 -0.11954464 0.07143544 -0.0023206174
000020 f6 94 ee bd a8 87 ee 3c ec a3 14 bd 88 ee 4d bd
       -0.11649506 0.02911742 -0.03628914 -0.05027631
000030 24 30 02 3d f8 97 b0 3c 9c 19 a9 bd 28 6e 37 bd
       0.03178419 0.02155684 -0.08256838 -0.044782788
000040 da c9 cc 3d 94 56 81 3d fe 58 f8 bd 36 a3 f8 bc
       0.09999438 0.063153416 -0.12126349 -0.030351263
000050 4c 80 c2 bd c0 4f 49 bb e0 a7 b1 3c 88 f6 1c 3d
       -0.09497127 -0.00307177 0.021686494 0.038321048
000060 20 04 cd bc 60 d1 54 bd 84 f9 de 3d 66 7a f4 3d
       -0.025026381 -0.051957488 0.10887435 0.11937408
000070 80 52 c9 bd b4 c0 7f bd 54 a9 06 bd 60 4e 72 bd
       -0.09830189 -0.062439635 -0.032876328 -0.059156775
000080 39 f0 39 3c 48 20 34 bd b8 1d c3 bc 26 25 cd 3d
       0.011348777 -0.0439761 -0.023817882 0.10016851
000090 b0 e1 57 3d 1e 9a ac bc a0 9b c8 3c fd 89 85 bc
       0.052705467 -0.021069583 0.02448827 -0.01630115
0000a0 14 0f 84 3c a8 16 78 bd c0 a2 d4 bd 30 d5 2b 3d
       0.016120471 -0.06056848 -0.103826046 0.04195136
0000b0 fc c0 c5 bd 72 f3 c0 bd 72 75 93 bd 20 95 0c 3d
       -0.096559495 -0.094214335 -0.07200135 0.034321904
0000c0 98 9f fa 3c fa a9 c7 bd 3c c5 31 bd 00 c8 02 3d
       0.030593678 -0.09749217 -0.043400988 0.031929016
0000d0 5c 59 a4 bd 40 23 59 3d 98 92 f1 bd 00 ee b0 bd
       -0.080248564 0.053012133 -0.11795539 -0.08639145
0000e0 06 e9 d1 3c 60 39 d7 bc 72 90 d6 bd 6c 50 f0 bd
       0.02562381 -0.026272476 -0.104767695 -0.11734089
0000f0 a0 ed 9c 3b d0 c0 7d 3d 04 11 bd bd 28 2f e6 3c
       0.0047890693 0.06195146 -0.09231761 0.028098658
000100 70 c3 b8 bd b4 da 32 bd 42 02 8c 3d 0f bd ca 3c
       -0.09021652 -0.043665603 0.06836368 0.024748353
000110 94 fe b4 3d e4 13 f5 3d 6b 3d cf 3d 05 af a2 3d
       0.088376194 0.119666845 0.101191364 0.079435386
000120 54 ec 52 c0 ba 5a 96 bd 97 85 a5 3d bd 63 5f 3f
       -3.2956743 -0.073415235 0.08082121 0.87261564
000130 81 4d 5c 40 0f 67 2e bd d5 17 36 3d aa 3f 14 bc
       3.4422305 -0.042578753 0.04445632 -0.009048382
000140 78 37 a5 bd b4 6b 95 bd 46 f5 86 3d 75 5f 90 3d
       -0.080672204 -0.07295933 0.06589751 0.07049457
000150 5a 70 15 3c 24 77 35 40 bc 1a 7a bf f7 ed ad bd
       0.009121025 2.8353968 -0.97697043 -0.08492654
000160 d9 fe f8 bd 34 22 08 3f 99 2b 5f 3d df 02 a4 ba
       -0.12157983 0.5317719 0.054484937 -0.0012513063
000170 51 cb 35 bf 74 ce f6 3d 72 7d 8b bd c9 8f e9 3d
       -0.7101336 0.120510966 -0.06811036 0.11404378
000180 b2 eb b9 3d 86 9e 24 c0 35 b2 99 3d 5c cb 29 bd
       0.090781584 -2.5721755 0.075046934 -0.041453704
000190 b3 90 8d bd 06 53 26 3f e0 5d b6 3f 92 59 02 bd
       -0.06912365 0.64970434 1.4247398 -0.031823702
0001a0 56 aa b7 bd aa 5b 81 bd 67 e3 41 3d 14 62 65 c0
       -0.08968036 -0.06316312 0.04733601 -3.5841112
0001b0 77 47 94 3f ca 67 7e 3d f2 83 6f 40 09 b8 8b bd
       1.1584309 0.0621107 3.7424283 -0.06822211
0001c0 58 62 7b 3d 56 59 0e c0 d4 49 05 40 6c d6 3c bc
       0.061373085 -2.2242026 2.082631 -0.0115257315
0001d0 ec 96 73 bd 7a ef e2 bc 9d ae 27 40 d4 55 8f 3d
       -0.059470102 -0.027702082 2.6200325 0.06998792
0001e0 38 58 a5 3d 4c 78 55 3d 80 06 a6 3c 0a 31 e2 3d
       0.08073467 0.052116677 0.020266771 0.1104451
0001f0 09 97 26 bd 74 d7 98 3d 9a a7 d8 3d 64 bc 16 bb
       -0.040671382 0.074629694 0.105788425 -0.0023000473
000200 6c 6c 24 3d 18 36 2f bb a6 77 94 3d b4 0b d5 3d
       0.04014246 -0.0026735123 0.07249384 0.10402623
000210 5a 83 60 3d d0 89 88 bd c5 12 22 3d 02 7d fc bd
       0.054812767 -0.06666911 0.03956868 -0.12328531
000220 1b 4a 2c 3f b8 32 05 3d 78 41 ab 3c df 21 1a bf
       0.67300576 0.032519072 0.020905241 -0.60207933
000230 5d bb ca bf b3 ae 4f bd 34 51 eb bd 12 f2 c2 3d
       -1.5838429 -0.050703716 -0.11490098 0.095188275
000240 60 ad af 3b 57 eb f9 bd 80 fd e6 bc f5 39 da bd
       0.005361244 -0.12203091 -0.02819705 -0.10655586
000250 d0 14 a4 bd 98 7b 9e c0 96 e8 90 c1 00 8a b7 b9
       -0.08011782 -4.952587 -18.113567 -0.00035007298
000260 4a 6f d2 c0 fb 98 c7 bc ce 66 8b bd fc da 29 bd
       -6.576085 -0.024364939 -0.06806718 -0.041468605
000270 12 3d 0f c1 48 c5 5f bd 00 34 67 ba 6e 02 bd bd
       -8.95241 -0.0546315 -0.0008819699 -0.09228979
000280 9a 2d 9c bd 24 e2 ae 3f 36 9f 8a 3d 9e d1 d1 bd
       -0.07625885 1.3662763 0.06768648 -0.102450594
000290 10 a6 d5 bd e4 af a4 3f 11 b1 2b 3f a4 f9 58 3d
       -0.104320645 1.2866178 0.67067057 0.05297245
0002a0 d8 b4 31 3d b0 6c 55 bc e2 5c e6 bd 05 9b cd 3f
       0.043385357 -0.013026401 -0.11248185 1.6062933
0002b0 02 27 03 40 65 a1 77 3c b4 17 97 3f 16 e3 ee bd
       2.0492558 0.015114163 1.1804109 -0.11664407
0002c0 2a 63 de bd 76 f2 75 3d 97 27 36 bd b8 28 12 bd
       -0.10858758 0.060045682 -0.04447135 -0.035683364
0002d0 80 c0 a0 3b fe f7 99 40 65 de 72 40 b4 95 86 3d
       0.0049057603 4.8115225 3.794824 0.06571522
0002e0 3a 89 27 3d 44 f7 c7 bd 40 fe 1f 3d 1c 6e a1 3d
       0.040902354 -0.09763959 0.03906083 0.0788233
0002f0 f2 aa a8 3d 58 b1 44 bd 7c 8c 26 bd b0 bc a5 bd
       0.0823573 -0.04802069 -0.04066132 -0.0809263
000300 c5 7e 2c 3d 8f dd 88 3d 2a a7 cd bd f8 fb 54 3d
       0.042113084 0.06682884 -0.1004165 0.05199811
000310 2e cc a3 3c 86 66 f9 3b 6b 64 b3 3d 08 05 8b bc
       0.019994821 0.0076110987 0.087593876 -0.016970173
000320 d5 6e c8 40 1c 50 8e bd 6e 9d db 3d da 04 f6 3f
       6.2635293 -0.069488734 0.10723387 1.922023
000330 b9 ab db 40 61 74 4d bd 1f 29 f1 b9 db f8 33 3c
       6.864712 -0.050159816 -0.0004599774 0.010984625
000340 c0 dc d5 bd 1f 49 08 be c6 83 24 bd b1 1b e1 bd
       -0.10442495 -0.13309143 -0.04016473 -0.1099161
000350 af 37 07 3e 4e af 8f 40 53 fb cc 40 28 a1 e4 bd
       0.13204835 4.4901495 6.405679 -0.111635506
000360 6e 0a a1 3e f9 78 0f 40 cf 0f d4 bd 8a b3 8e bd
       0.3145327 2.2417586 -0.10354578 -0.06967838
000370 3c 7b 3d 3e 2f c2 fa bc d0 d6 72 bd 61 c8 94 bb
       0.18504041 -0.030610172 -0.059286892 -0.0045404886
000380 fd a1 c8 3d 46 70 6c 40 48 45 9e 3c 0d 52 c7 3d
       0.09796522 3.6943526 0.019320145 0.09732447
000390 7d f1 3e bd e3 a8 d9 3d 3a c4 00 3f 6b 86 9f 3c
       -0.04661702 0.10627916 0.5029942 0.019473275
0003a0 d3 90 45 bd 37 cf 54 3d 50 57 80 3d 22 66 86 40
       -0.04823382 0.051955428 0.062666535 4.1999674
0003b0 6b 91 8b 3f d2 ec e0 bd 97 b1 fa 3f 10 1e 5e 3b
       1.0903753 -0.1098267 1.9585446 0.003389243
0003c0 60 4f bf 3c a5 7d 77 40 2c e3 74 40 2d 5b a1 bd
       0.023353279 3.8670437 3.8263655 -0.078787185
0003d0 82 6c b1 3d 5b 2f b1 3f 54 44 52 40 e2 8e db bd
       0.08663274 1.3842577 3.2854204 -0.10720612
0003e0 11 7e ea 3d 9f 04 89 3c 3a 0c a0 3d d0 ed e7 bd
       0.114498265 0.016725836 0.07814832 -0.11324656
0003f0 3b aa 0c 3d ec 02 09 3d de fd c8 bd 11 5b 30 3d
       0.034342032 0.033450052 -0.09814046 0.043055598

feauture_layer.2.bias f4 [64]
000000 60 20 76 3c fa 7c 2c 3f d7 cf 56 3c 48 50 6a 40
       0.015022367 0.673782 0.013111076 3.66115
000010 94 8e 00 3e 5c ba 33 bd fb e7 1d 40 2d ae bb 3f
       0.12554389 -0.043878898 2.467284 1.4662529
000020 d5 60 81 40 5a 84 07 3d 66 aa 83 40 4a 91 62 40
       4.0430703 0.033085205 4.1145506 3.5401177
000030 0c 89 44 3f 15 ce 09 3c 6b cc 96 40 59 28 4c bd
       0.76771617 0.00841095 4.7124534 -0.049843166
000040 4c a2 b1 3d 98 07 d1 3f e3 b8 af 3f 0a e5 c9 3e
       0.08673534 1.6330442 1.3728298 0.39432555
000050 43 1a 4f bc a0 a9 0b 40 86 f8 19 be b7 c8 ae 3d
       -0.012640539 2.182228 -0.1503621 0.08534377
000060 f1 e0 3a bf 29 23 00 be fa ac 6a 3f c8 88 1c 3d
       -0.72999483 -0.12513413 0.9167019 0.038216382
000070 38 e5 42 3d 25 a1 1d 3f c1 26 76 3f 95 e4 0b 3f
       0.04758188 0.6157401 0.96152884 0.54645663
000080 94 09 80 40 f1 44 0a bd a1 03 82 3d 9f a3 47 bd
       4.001169 -0.033757154 0.063483484 -0.048740026
000090 4a d9 83 3e 17 29 15 bf 29 64 82 3f 25 f8 2a be
       0.25751716 -0.58265823 1.0186816 -0.16696222
0000a0 74 0c d0 bc 2a ec 73 bc 59 9f 4d 3d 4b 27 a9 bd
       -0.025396563 -0.014887849 0.050200794 -0.08259448
0000b0 fc 04 a9 3e 1b 77 d3 3f af 1a 8b 40 d3 ff 77 3f
       0.33011615 1.6520723 4.3470073 0.9687473
0000c0 da 33 6a bd 33 3b 74 40 cf 99 fc 3e d5 be 30 3f
       -0.057178356 3.8161132 0.49336097 0.69041187
0000d0 5b c1 87 bf 30 b6 e4 3f de b4 87 40 46 e5 34 3f
       -1.0605882 1.7868099 4.2408285 0.70662344
0000e0 dd fd c8 bd ff 9b 2e 3f 53 2a 9f bc 3b 9c 7e be
       -0.098140456 0.6820678 -0.019429361 -0.24864285
0000f0 8a 1a cd bd d0 e1 5d 40 34 72 19 40 e0 06 cc bb
       -0.100148275 3.4669075 2.3975954 -0.0062264055

value_stream.0.weight f4 [32, 64]
000000 56 58 cb 3d 12 0c e7 bf 7a ec 13 41 d0 bd f8 bc
       0.09928958 -1.8050559 9.245234 -0.030363947
000010 8f 19 d5 be c7 17 1a 3c 94 75 4d 3e 92 9d 86 c0
       -0.41621062 0.009405083 0.20064384 -4.2067347
000020 22 67 05 3f f9 f2 98 c0 61 96 a2 3e df 3d 18 c0
       0.52110493 -4.7796597 0.31755355 -2.3787763
000030 f6 68 4a c1 32 cc 03 bf ef 69 ad be da e8 44 bd
       -12.650625 -0.5148345 -0.33869883 -0.048073627
000040 d5 23 08 c0 74 32 e7 be 54 d0 69 3f 9e 76 6d bf
       -2.127187 -0.4515568 0.9133351 -0.9275912
000050 9f 33 c1 3d 0f 92 07 40 be f9 49 bd 2e d7 1a bd
       0.09433674 2.1182897 -0.04931044 -0.037802868
000060 22 3d d8 3e 89 79 8b 3b 8e 06 2a c1 9b e5 b1 3d
       0.4223414 0.0042564315 -10.6266 0.08686372
000070 50 e6 07 3c 5d c0 04 40 c3 ef f1 c1 3d 09 01 c0
       0.008294657 2.074241 -30.242071 -2.0161889
000080 df 9a 47 3f fe fa 87 bd 70 58 7c bd b3 81 82 bf
       0.7797069 -0.0663967 -0.061607778 -1.0195831
000090 77 6c 0e bf e8 3a 90 40 1e ac 9a c0 a9 36 f2 3c
       -0.55634254 4.5071907 -4.8335104 0.02956708
0000a0 48 44 9d 3d 17 87 d3 bd a5 03 49 3d 3a 40 57 3d
       0.07679039 -0.10328501 0.04907574 0.052551486
0000b0 0c f6 b8 40 b7 17 ea c0 c1 5e d8 3e ff 45 8f 3f
       5.780035 -7.315395 0.42259791 1.1193236
0000c0 eb 6e 03 3e 10 f5 1d bf 0b c2 d4 40 18 25 ba 3f
       0.1283528 -0.6170206 6.648687 1.454257
0000d0 60 b1 d6 3e 61 ae 98 bf 5c 88 05 3f f3 4b 9f 3f
       0.419322 -1.1928216 0.5216119 1.2445053
0000e0 ab dd 00 3f 30 b0 ab bf 9f bc f0 c1 51 2f 17 be
       0.5033824 -1.3413143 -30.0921 -0.14764144
0000f0 52 47 4e 3d 5c 93 87 3f f1 d1 22 bf 28 25 d5 3d
       0.050360985 1.0591846 -0.63601595 0.104074776
000100 30 9f fd 3d cd ee d5 3f d3 97 08 41 07 5f 57 bf
       0.12383878 1.6713501 8.537066 -0.84129375
000110 05 51 b4 be b4 81 ec 3d db e7 14 40 0b 39 2d 3f
       -0.35218063 0.115481764 2.3266513 0.67665166
000120 66 5d 20 3f 01 13 37 c0 20 f5 63 be ca ca 5b bf
       0.62642515 -2.860535 -0.22261477 -0.85856307
000130 6f f0 71 c0 4d 91 43 be c5 25 1c bf a7 62 07 3e
       -3.7803 -0.19098397 -0.6099513 0.13221227
000140 48 c9 62 c0 e3 7d 01 40 a5 f8 e9 bf 62 af e4 c0
       -3.5435352 2.0233085 -1.8279005 -7.146409
000150 48 39 a6 bd c9 dd 4c 3d 3e 20 87 bd 8f 51 67 bc
       -0.08116394 0.0500162 -0.065979466 -0.014118566
000160 c0 b5 4f c0 63 b1 9f bd 18 96 ad 40 4a b5 9f bd
       -3.2454681 -0.07797506 5.424572 -0.0779825
000170 04 4c db 3d c0 49 4a be e3 47 2b 40 1e 7b 5a 40
       0.10707858 -0.19754696 2.6762626 3.4137645
000180 e8 49 fc 3c 8c 6d 0d 3e 8b 7a d9 bd 44 e2 0c 41
       0.03079696 0.1381132 -0.10619076 8.805241
000190 e7 8e 1d bf 08 f2 52 3f 4d a5 e7 3f 62 e4 81 3d
       -0.61546177 0.8240056 1.8097321 0.06342389
0001a0 26 1e 88 3d 75 c1 aa bd e6 7c 8f bd 69 9d 94 bc
       0.06646375 -0.0833768 -0.07006244 -0.018141465
0001b0 ca 73 bd 40 9e e4 4e bf e9 92 d2 bb bd 7a 5a bf
       5.9203844 -0.8081759 -0.0064262045 -0.85343534
0001c0 9b 9f 04 bd 1b 64 bf 3e 82 aa ab bf e0 df 03 3f
       -0.032378774 0.37381062 -1.341141 0.5151348
0001d0 2c 74 10 3f 74 88 25 3e 99 14 8b 3e f2 89 1c 40
       0.56427264 0.16165334 0.27164152 2.4459195
0001e0 f4 71 94 3f 7b ed 38 40 8b 12 b0 40 0a e1 33 c0
       1.1597276 2.8894947 5.5022635 -2.8106103
0001f0 4e 31 99 bd 6c 9b 86 3e 02 4b e8 be da 87 31 3d
       -0.07480107 0.26290452 -0.45369726 0.04334245
000200 b0 10 17 3d ca 0c ea bd 24 e0 33 bd 90 49 93 3d
       0.03688115 -0.114282206 -0.04391493 0.07191765
000210 69 1c 6a 3d be 44 6f bd 56 1c 07 bd 0d 34 05 be
       0.057156 -0.058415167 -0.032986008 -0.13008137
000220 f0 b3 f0 bd f8 2c d5 bd f7 97 91 bd 75 4f 21 bd
       -0.1175307 -0.10408968 -0.07109063 -0.039382417
000230 9e a5 ca 3c a8 0e 00 bd 92 f6 e4 bd 0e 94 91 3c
       0.024737176 -0.031263977 -0.11179842 0.017770793
000240 8f 9a b7 bb 50 2c e8 bd ff 50 24 be 36 85 b6 bd
       -0.0056031416 -0.11336577 -0.16046523 -0.08912127
000250 f8 7a 9d bd fe 3a 36 be 30 21 b9 3d a9 3f 94 3c
       -0.0768947 -0.17795941 0.09039533 0.018096762
000260 7d f7 bd bd ad 2c 90 3d aa 62 4e 3d 28 f6 1c 3d
       -0.0927572 0.07039771 0.050387062 0.03832069
000270 0c 1c e6 bd 82 fa a7 bb cc de e0 bd 7b 57 83 bc
       -0.11235818 -0.0051262984 -0.10979995 -0.016032925
000280 96 93 f8 bd 9b 69 7f 3d 58 87 0a 3d 13 38 bd 3c
       -0.12137525 0.062356573 0.03382048 0.023098027
000290 7d ce 04 be e2 df 30 be 87 15 d5 3d e0 97 e7 bd
       -0.12969394 -0.17272905 0.10404497 -0.11308265
0002a0 e0 81 c1 bc ea e6 8b 3c c9 93 93 bd 62 c4 6a 3d
       -0.0236215 0.017077882 -0.07205922 0.05731619
0002b0 f8 64 2f bd 10 45 c2 bd 7f a7 e7 3c 2f de e7 3b
       -0.0428209 -0.09485829 0.02827811 0.007076047
0002c0 45 2f b6 3d 37 bd 10 be dd 3b 05 bd d6 11 37 be
       0.08895735 -0.1413468 -0.032527793 -0.17877898
0002d0 64 46 63 be 02 01 ce bd 85 5a 34 be ee d5 dc bc
       -0.2219482 -0.10058786 -0.17612655 -0.026957478
0002e0 a1 6c e9 bc 84 f9 ee bd f4 3f d9 bc 64 1d 2a be
       -0.028494181 -0.11668685 -0.026519753 -0.16612774
0002f0 24 3d d1 3b d0 7b 5e bd 47 29 37 bd a5 63 8e 3c
       0.0063854624 -0.054317296 -0.0447171 0.017381499
000300 37 bd 90 bd 57 a6 53 bd f8 7c fa bd 43 0d 83 bd
       -0.0706734 -0.051672306 -0.12230867 -0.06399014
000310 a8 5c 88 bc 0e 9c e5 bd 56 c8 bf bc 57 1d d5 3c
       -0.016645744 -0.11211406 -0.023410957 0.026014967
000320 ce 81 5d 3d 90 f5 cb 3d e8 75 89 bd 81 ea b8 bd
       0.05407887 0.09958947 -0.06711942 -0.09029103
000330 6b b3 02 be 79 f3 4c bc d0 b2 61 bd f8 6b fc 3a
       -0.12763755 -0.01250922 -0.05510217 0.0019258251
000340 d8 e2 f1 bd e7 1c 4a bc fd 08 5b bd 56 90 e5 bd
       -0.11810845 -0.012335992 -0.05347537 -0.112091705
000350 0e 68 b5 bc 57 b7 c9 bd f5 9f 65 3c 8c fb 03 be
       -0.022144344 -0.098494224 0.0140151875 -0.12888926
000360 28 7b 71 bd 02 89 c5 3d 10 83 9b bd ed c5 6d bd
       -0.05895534 0.09645273 -0.075933576 -0.058050085
000370 30 e7 9e bc 7f 2e 91 bd 06 f9 c0 bd e2 fb 1d be
       -0.019397348 -0.070889466 -0.094224975 -0.15428117
000380 e9 98 c3 3c 7b a4 fd bd 5d b4 34 bd 81 ea 38 bd
       0.023876624 -0.12384888 -0.04411732 -0.045145515
000390 7c f2 45 bd 88 2b c3 3a f9 08 94 bd 24 30 05 3c
       -0.048326954 0.0014890293 -0.07228274 0.008129153
0003a0 72 19 9a bd ef 4a 89 bd d0 b3 38 bd 49 71 80 bd
       -0.075243846 -0.067037456 -0.045093358 -0.062716074
0003b0 d1 a2 c2 bc 5a e8 9d bb 08 54 d5 bd 46 47 f9 3c
       -0.023759278 -0.004818958 -0.10416418 0.030429494
0003c0 30 a4 38 bd 95 75 b6 3c e9 5a 6a 3d e6 54 a4 3c
       -0.045078456 0.022272864 0.057215605 0.020060014
0003d0 6b 59 3c be 8f 1d 37 3d b2 0e 95 bd 82 b7 d6 bd
       -0.18393485 0.044705924 -0.072781935 -0.1048422
0003e0 f3 7d b2 3d e4 ef e7 bd 08 2b 9c 3b eb 43 75 bd
       0.08715429 -0.113250524 0.004765872 -0.059879225
0003f0 0d 57 bf 3c 67 44 55 3d fb fe ea bd 58 82 92 bd
       0.023356939 0.052067187 -0.11474415 -0.07153767

value_stream.0.bias f4 [32]
000000 ae 69 50 40 57 7f ec 3f 08 4d 88 bc c3 26 74 bc
       3.2564502 1.8476361 -0.016638294 -0.01490182
000010 3a bb e1 bf 6d 31 ba 3f 48 f6 d4 bd 44 e1 6d 3d
       -1.7635262 1.4546334 -0.10398537 0.05807616
000020 14 54 2a bd 90 af 87 3f 00 81 11 c0 e5 03 f1 40
       -0.04158409 1.0600452 -2.2734985 7.5317254
000030 7b 35 9d 3f 47 75 4d 3f e6 42 80 bf b4 e8 fe bd
       1.2281946 0.80257076 -1.0020416 -0.12446728
000040 e2 7f eb 3c d6 28 2c bb 42 bf c3 3f 24 3a 96 3f
       0.028747503 -0.0026269457 1.5292742 1.1736493
000050 43 6e 16 be d5 8c e6 bf 98 1b 45 3f 48 b1 2e bd
       -0.14690499 -1.8011729 0.7699523 -0.042649537
000060 ce f8 aa 3f 97 ea 2c c0 e3 3a c5 bd 61 c5 06 bf
       1.3357179 -2.7018182 -0.096303724 -0.52644926
000070 91 6d 9d 3f 26 26 dc bd d3 67 0c be c1 3b 14 3d
       1.2299062 -0.10749464 -0.13711481 0.0361898

value_stream.2.weight f4 [1, 32]
000000 f8 c9 38 41 96 f7 76 41 02 d2 95 ba 4e 22 78 3a
       11.549309 15.435446 -0.0011430385 0.0009465561
000010 ff 77 0b c1 3e 4b 00 41 fa 70 74 bc 66 a6 6f 3b
       -8.716796 8.01837 -0.014919514 0.0036567687
000020 9a 9c e1 3d ad 41 33 41 19 8b 5d c1 3c 64 bd 40
       0.110161975 11.203534 -13.846459 5.9184856
000030 b4 c8 39 41 18 29 3f 41 25 83 a0 c1 a2 60 eb bb
       11.6115 11.947533 -20.064035 -0.0071831504
000040 9d 88 0f 3e 6f f8 ef b9 27 9a 16 41 23 f1 36 41
       0.14016958 -0.0004577073 9.412635 11.433871
000050 6d 02 19 3d 45 c2 41 c1 cb f3 1e 41 8d 52 6e 3d
       0.03735583 -12.109929 9.93452 0.058184195
000060 47 0a 25 41 f5 e2 34 c1 c4 14 f7 3d f0 0d 73 c1
       10.315009 -11.305409 0.120645076 -15.190903
000070 0d e0 1c 41 df a1 10 bc df a2 5e bd dd b2 86 3e
       9.8047 -0.008827656 -0.054354545 0.26308337

advantage_stream.0.weight f4 [32, 64]
000000 10 57 f4 bd ec 7c 89 3f fb 47 e4 be 64 27 30 bf
       -0.11930668 1.0741248 -0.44586167 -0.68810105
000010 0d ff f7 be ce 0a dc bb 41 af 31 3f 3c b1 ce bf
       -0.48436776 -0.006715155 0.6940804 -1.6147838
000020 87 2a c3 3e 58 94 a2 c0 fc a5 a6 be 75 69 6c bf
       0.38118383 -5.0806084 -0.3254851 -0.92348415
000030 26 9c 35 40 76 6d 3a bf 30 75 b1 3c 1b 67 83 3d
       2.8376555 -0.72823274 0.021662325 0.0641615
000040 a3 1d b6 be 54 48 1d be 8c 4b 66 c0 1b 4a 52 3f
       -0.35569486 -0.15359622 -3.598361 0.82144326
000050 56 61 ad 3d dd eb 1a 40 87 af c9 bd 2c d8 a1 3d
       0.08465831 2.420646 -0.09847932 0.0790256
000060 3a a7 01 c0 67 23 f0 bd 9c c4 65 3f 86 16 dc 3c
       -2.0258317 -0.117255025 0.8975313 0.026866209
000070 36 42 e5 3c 24 70 b2 be c3 33 37 3e 4c a1 da bd
       0.027985673 -0.34851182 0.1789084 -0.10675296
000080 68 d7 35 3f a4 a3 bc bb 37 b7 91 3d 03 d2 60 3f
       0.7103181 -0.005756812 0.071150236 0.8782045
000090 45 5c 8a 3e ae 58 19 3f 7a 2d 1e 40 4b 93 33 bd
       0.2702352 0.5990094 2.4715257 -0.04384164
0000a0 c8 61 b8 3d f0 12 af bd 94 c4 05 3d 51 37 5f bd
       0.09003025 -0.08548534 0.032658175 -0.054496113
0000b0 8e 32 c4 c0 31 4c f1 bc fa bb 02 3f a8 82 e0 bf
       -6.131171 -0.029455276 0.5106808 -1.7539873
0000c0 be 60 dc bc 52 27 dc 3d dc 71 2f c0 83 c4 b9 3f
       -0.026901599 0.10749687 -2.7413244 1.4513096
0000d0 52 14 0a bf 67 0e bf 3f 6f 99 89 3e 43 5d 3d c0
       -0.53937256 1.492627 0.26874873 -2.9588172
0000e0 8e 45 0f 40 5c 3d 1d 40 5f d4 61 c0 00 16 9a 3f
       2.2386203 2.45687 -3.528587 1.2037964
0000f0 de 81 f9 bc f8 ae ff 3e 9c 5e 32 bf 94 84 dd 3d
       -0.030457433 0.49938178 -0.6967561 0.10816303
000100 68 c5 3d 3d 6a 59 bc 3d d2 0a ee 3d c3 e0 c6 3c
       0.04633084 0.09196742 0.116231576 0.024277097
000110 93 37 96 bd 5a f8 0c bd 9b 57 bb bd 1e 55 86 bd
       -0.07334819 -0.034416534 -0.09147569 -0.065592036
000120 e9 6b e0 3c 2b 02 e2 3d 49 8f c2 bd 90 4f 92 bd
       0.027395206 0.1103557 -0.09499986 -0.071440816
000130 f3 93 a0 3c a4 4d 20 be 81 22 93 bd c1 d4 81 3c
       0.019601798 -0.15654618 -0.071843155 0.01584852
000140 33 b9 1f 3b a8 79 43 3d 53 f1 b1 bb f8 59 b8 bc
       0.0024371862 0.047723442 -0.0054303794 -0.022503838
000150 d9 c7 df bd 80 13 72 3d 2d 66 98 3d 87 0e 88 3d
       -0.1092679 0.059100628 0.074413635 0.06643396
000160 21 32 93 bd 8e eb 5b 3d e0 84 9c bd c8 6c af bd
       -0.07187296 0.05369144 -0.076425314 -0.0856567
000170 de f4 c9 bd d8 29 fa bd b8 6c 1c 3d 39 b0 0b 3a
       -0.09861158 -0.12215012 0.03818962 0.00053286884
000180 98 96 1b be 28 36 cb bd e5 ff 0e bb f6 8c 1a 3c
       -0.15194166 -0.09922439 -0.0021820005 0.009433022
000190 f1 e5 cb bd 8f fb ca 3c 61 85 43 3d 68 3e 56 bd
       -0.09955967 0.024778156 0.047734622 -0.05230561
0001a0 5c 36 34 3d c5 79 b4 3c c0 65 d4 bd ff 84 54 3d
       0.043997154 0.02203072 -0.1037097 0.051884647
0001b0 e5 5a a3 3d 7c 53 59 bc 53 79 a9 bd af 33 dd bc
       0.07976321 -0.013264533 -0.08275094 -0.027002184
0001c0 18 86 cc bd 86 86 90 3d c7 40 d3 3d 92 d8 d7 3d
       -0.09986514 0.07056908 0.1031509 0.105393544
0001d0 b9 77 0a bc 9f 04 89 3d 85 04 18 be 9c 08 6c bd
       -0.008451396 0.066903345 -0.14845474 -0.057625398
0001e0 bd 16 3e bd 12 e5 fc bd c8 21 8a bd 7e eb 3f bd
       -0.046408404 -0.12348379 -0.067447245 -0.046855442
0001f0 fd 89 05 3c 87 8b 88 3d 8f 57 66 bd 14 db 7e bd
       0.008150575 0.06667238 -0.056235846 -0.062220648
000200 04 81 f9 bd 4a d5 83 40 82 e9 94 bf c6 e3 10 be
       -0.12182811 4.1197863 -1.1633761 -0.14149389
000210 46 e3 11 40 35 19 2c be aa 24 87 3e 9c 40 2d 3f
       2.2794967 -0.1680649 0.2639516 0.6767671
000220 e5 e8 a8 be d1 9a 78 40 57 99 e3 be f6 b0 82 3f
       -0.32990184 3.8844492 -0.44452927 1.0210254
000230 af a8 13 bf 42 1a 38 c0 3a 30 98 bd 10 9b de bd
       -0.57679266 -2.8766026 -0.074310735 -0.108694196
000240 96 a6 ad 3f 92 64 67 3f c1 03 41 be 9b 3c 5f bf
       1.3566463 0.90387833 -0.18849088 -0.8720185
000250 f2 d3 ce bc ef 3b dd 3e e5 c1 35 3d fa 63 28 3c
       -0.025247548 0.43209788 0.044374365 0.0102777425
000260 dc 25 58 3f eb 1f 34 3d 9a 7f 8f c0 4a 67 d7 bd
       0.8443277 0.04397575 -4.4843264 -0.10517748
000270 00 10 04 38 f4 d7 51 bf 9a 56 1e c1 30 b8 24 c0
       3.1486154e-05 -0.81970143 -9.896143 -2.573742
000280 b2 14 38 bd e8 b5 b7 3a e4 8d 85 3d a3 fa 18 c0
       -0.04494161 0.0014016004 0.06521204 -2.3902977
000290 3c 17 d7 3e 50 0a 82 c0 55 9f 85 3f c8 21 8a 3c
       0.42009914 -4.063759 1.0439249 0.016861811
0002a0 d2 51 9e 3d 7c ec c6 3d 31 59 93 bd 05 c2 ed 3d
       0.0773045 0.097130746 -0.07194746 0.11609272
0002b0 48 f9 91 40 2d ad 01 3e 8f 04 3e be ec 81 cd 3f
       4.56168 0.12663718 -0.18556426 1.6055274
0002c0 34 ad 21 3d 2f da 20 3f 60 c9 3f bf f4 b4 dd bf
       0.03947182 0.6283292 -0.7491665 -1.7320848
0002d0 21 65 85 3f cf 42 2c 3e d9 ac b7 bd 0f 6c 87 3f
       1.0421487 0.1682236 -0.08968515 1.0579852
0002e0 2b c9 4a c0 8b 4f 52 40 d6 38 fc bf 20 ad 1b 40
       -3.1685283 3.286105 -1.9704845 2.4324417
0002f0 84 8e 64 3d 50 90 f0 be ad 65 90 3e d1 ad 39 3d
       0.055799976 -0.46985102 0.28202572 0.04533178
000300 d4 bb 39 3d 9c db 86 3f 45 af 39 c0 03 8a 03 c0
       0.045345142 1.053577 -2.9013226 -2.0552986
000310 97 b1 71 c0 82 de ba bd 96 10 37 3f 4e 9d 1b 3f
       -3.7764642 -0.09124471 0.71509683 0.607869
000320 77 95 e3 3e 80 a0 e8 c0 ff 59 4d be 8c f7 5c 3f
       0.4444997 -7.2695923 -0.20053862 0.86315227
000330 72 2a 6b 40 73 a6 0d bf d4 33 a1 3d 92 af 1e 3c
       3.6744657 -0.55332106 0.078712136 0.009685414
000340 dc e7 9f c0 e5 5b 16 c0 b4 9b d9 be 71 fa 37 c0
       -4.997053 -2.3493588 -0.42501605 -2.8746607
000350 3c 71 2b 3d c2 32 05 c0 ba bd fe bc b6 a7 c9 bc
       0.041856036 -2.081223 -0.031096328 -0.024616104
000360 4b 62 99 40 b3 69 a9 3c 43 bc 8b bf a7 e1 dc bd
       4.7932487 0.020680284 -1.0916828 -0.10785227
000370 a8 eb d2 bc 39 3c d2 3f d2 40 18 40 d2 42 ce bf
       -0.025747135 1.6424628 2.3789563 -1.6114142
000380 b3 57 68 3d 5e 65 65 bd da 4d 02 3e fc 07 1c c0
       0.05672426 -0.056004874 0.1272501 -2.4379873
000390 92 f4 91 be c8 df 8c c0 4e a1 45 3f 7b 9c a9 bb
       -0.28506905 -4.402317 0.77199256 -0.0051761246
0003a0 54 03 f6 bd f8 a7 80 3b 9b 6f 7e 3d 9d eb f7 bc
       -0.120123535 0.0039262734 0.062118154 -0.030263716
0003b0 83 8c c2 40 0a b2 55 bf 66 8b 85 bf f2 a7 a9 be
       6.0796523 -0.8347479 -1.0433166 -0.33135945
0003c0 48 62 5f bd 8f 57 b3 bd 4e 3f 47 bf bf 3e 0f 3f
       -0.054537088 -0.08756935 -0.7783097 0.5595512
0003d0 ec ad ae 3f 2c 66 92 3f 1e 2d b8 3e 0a b6 2f c0
       1.3646827 1.143743 0.35971922 -2.7454858
0003e0 95 82 e5 3e 7e 54 09 be 7d b4 d1 40 4f fe 6f 40
       0.4482619 -0.13411137 6.5532823 3.7498968
0003f0 63 5d d8 3d 88 ba 99 bf 4f 70 b9 3f e2 22 82 bd
       0.10564687 -1.201005 1.4487399 -0.063543096

advantage_stream.0.bias f4 [32]
000000 1e 72 0a 3f 78 20 30 3c d3 8b b2 3e 09 30 24 3e
       0.5408038 0.010749929 0.34872302 0.16033949
000010 f2 3d 5f bf 68 57 c2 3e 24 5f 3d be 3a d6 c3 3e
       -0.87203896 0.3795731 -0.18493325 0.3824938
000020 cc 39 c8 be 06 5e f8 3d b2 70 96 3e 92 0d a8 bf
       -0.39106596 0.121273085 0.29382855 -1.3129141
000030 71 1d 44 bf 41 83 b4 3e f2 dd 7d 3e f4 44 d1 3c
       -0.76607424 0.3525639 0.24791697 0.025545575
000040 8d 7b 55 3f ba 68 40 bf f6 7d f9 3c 11 5a 13 3f
       0.8339165 -0.751598 0.03045557 0.57559305
000050 62 61 02 3c 3d ef 52 3e 34 0e b7 be 6f 46 b3 3e
       0.007957788 0.20599075 -0.35753024 0.35014674
000060 89 55 11 be f9 b9 20 3d 64 4a 0d be 6d 74 a2 3b
       -0.14192785 0.039239857 -0.13797909 0.0049577267
000070 20 38 12 be 43 ff b5 3e 46 a2 66 3f cc 8e 62 bd
       -0.14279222 0.35546312 0.9009136 -0.055311963

advantage_stream.2.weight f4 [36, 32]
000000 de 91 9f 40 a6 0e c0 bd 13 28 8d bf ba bd 7d 40
       4.986556 -0.09377794 -1.1027855 3.964705
000010 99 e0 95 c0 9e fd 7a bf c6 13 f0 bd 54 0b 94 40
       -4.6836667 -0.9804324 -0.117225215 4.626383
000020 8a 96 2e bf e3 83 23 41 dc b7 e5 40 83 e9 82 40
       -0.68198454 10.219699 7.178694 4.091005
000030 81 7a ca 40 ef a2 47 c0 d4 4b 04 41 85 fe 18 3d
       6.327454 -3.1193197 8.268513 0.037352104
000040 db 5d 45 c0 ba 2f 96 c0 d3 79 d0 bd c8 50 a6 40
       -3.0838535 -4.693326 -0.10179486 5.197361
000050 96 30 10 bd b6 b3 ce 3f 69 ba 58 c0 8b 0d 7a c0
       -0.035202585 1.6148593 -3.3863776 -3.9070766
000060 c2 7f d7 40 de c2 d5 bf 11 34 cc bc 04 ef 50 3d
       6.7343454 -1.6700094 -0.024927171 0.051009193
000070 a8 45 13 3e 2e 2c 25 41 8c 2c 01 41 ed b4 f7 3d
       0.1438204 10.323286 8.073376 0.12095056
000080 51 cc 8d 40 fd c3 34 3e 6d 1d 70 c0 90 12 5c c1
       4.431191 0.17652889 -3.751796 -13.754532
000090 cf 2b b0 c0 fa 13 01 bf 36 51 06 3d a5 5b f8 3f
       -5.5053477 -0.50421107 0.032792293 1.9402968
0000a0 7a d8 3e c0 06 63 c8 40 11 a0 82 c0 3e a9 3a 41
       -2.9819627 6.262088 -4.0820394 11.666319
0000b0 7b b2 b3 40 68 bc c1 bf 98 4e 3f 40 d0 eb 12 3d
       5.615537 -1.5135622 2.989172 0.03586942
0000c0 a0 15 73 3f 6b e5 95 40 2d 3f b4 bc 8a e7 84 40
       0.9495487 4.684255 -0.02200278 4.153264
0000d0 bd 5f 8e 3d 86 7c 6a c1 a2 95 91 3f 13 b5 a8 3f
       0.069518544 -14.655401 1.1373789 1.318026
0000e0 38 1e 17 40 95 23 a1 c1 5c 26 be 3c 5f da 11 3e
       2.3612194 -20.142374 0.02321165 0.14243458
0000f0 86 6a a3 3d 25 64 40 c1 6f d7 e4 c0 61 e1 5e 3e
       0.07979302 -12.024449 -7.151298 0.21765663
000100 ec 7c 01 40 bf 4d 91 3a 84 d0 70 bf e2 e8 cb 3d
       2.0232496 0.0011085792 -0.9406817 0.09956528
000110 d3 2c b6 bf f8 e0 4b be 7d 45 06 bd 2d 34 03 40
       -1.4232429 -0.19910038 -0.032781113 2.0500596
000120 d3 17 08 bf 06 cc 7b 40 da d4 c2 3f b5 97 90 40
       -0.5316135 3.9343276 1.5221207 4.518519
000130 74 2a 44 40 b8 65 63 bf 35 62 88 40 c2 2a 1e 3e
       3.0650911 -0.88827085 4.261988 0.15445998
000140 ef 8b 44 3f e8 6b 4a 40 20 66 c3 bd bf 48 4a 40
       0.7677602 3.162836 -0.09540963 3.16069
000150 52 b3 58 bd 8f 7a 3d bf 4b 74 a9 3f c4 6b 01 40
       -0.05290539 -0.74015135 1.3238615 2.0222025
000160 5b 31 46 40 e9 d2 6a c0 89 e6 1c bd 64 b0 98 3d
       3.0967624 -3.669123 -0.038305793 0.07455519
000170 46 47 f9 bc d4 3d 76 40 90 39 8e bf dd 24 10 3c
       -0.030429494 3.8475237 -1.1111317 0.008797851
000180 63 56 02 40 60 5c 0a bd ba 85 26 c0 70 7f 4e c1
       2.0365226 -0.033779502 -2.601912 -12.906113
000190 ec 76 98 c0 ae ce 64 3f 1e 39 19 3e 03 27 c3 be
       -4.764517 0.8937787 0.14963195 -0.381157
0001a0 96 22 0d c0 e3 9b b5 40 b7 62 54 c0 5c 98 2d 41
       -2.205236 5.675279 -3.318525 10.849697
0001b0 9d 08 6b 40 ab 78 81 bf 9b ba 14 c0 a0 3e b8 3d
       3.6724007 -1.011495 -2.3238895 0.0899632
0001c0 fe fc 1f 40 a4 64 80 40 95 27 6e 3d 7d 7a 03 40
       2.4998164 4.012285 0.058143217 2.054351
0001d0 a0 d1 a6 bd 0a 3f 43 c1 b0 0a 00 40 78 99 8a 40
       -0.081454515 -12.20289 2.0006523 4.331234
0001e0 f6 d2 19 3e 34 42 97 c1 26 fd 22 bd 66 1c a3 bc
       0.15021881 -18.907326 -0.039792202 -0.019911002
0001f0 3b 50 c6 bd ff 49 48 c1 c7 22 0d c1 d4 5d e3 bd
       -0.096832715 -12.518065 -8.820991 -0.11101881
000200 a7 ca d9 3f c8 9e 0a be 1b da 40 be 29 cc 27 c1
       1.701497 -0.13537133 -0.188332 -10.487344
000210 f5 22 84 c0 3e f8 ac 3f aa 39 15 3e 20 5c 4a be
       -4.129267 1.3513258 0.14572778 -0.19761705
000220 a8 a4 8e bf 62 61 6f 40 7f e1 96 c0 73 af 1c 41
       -1.1143999 3.7403188 -4.7150264 9.792834
000230 fa d8 8c 40 79 14 27 bf 6e 66 84 c0 2a df 27 3d
       4.4014864 -0.65265614 -4.1375036 0.04098431
000240 07 e8 05 40 e2 f6 85 40 39 8f 26 3e b7 31 da 3f
       2.0922868 4.186387 0.16265573 1.7046422
000250 ff c7 25 be 53 67 1c c1 ae 55 83 40 0b ad 81 40
       -0.16189574 -9.775226 4.104209 4.0523734
000260 fb 80 5c be c7 db 55 c1 3c e9 b3 bc 27 47 c1 3d
       -0.21533577 -13.366157 -0.0219618 0.09437399
000270 b5 8a 0e 3e 37 62 2d c1 ee 6a 36 c1 cf d5 24 3e
       0.139201 -10.836478 -11.401106 0.16097187
000280 2c 8b 8f bf 38 95 25 3e d3 17 a0 40 56 eb 0b 41
       -1.1214347 0.16170204 5.002908 8.744955
000290 60 c2 d4 40 97 07 43 40 7f f6 36 3e df ab 1c c0
       6.6487274 3.0473382 0.17867468 -2.4479902
0002a0 44 81 c2 40 fd 2c db bf b3 cb c1 c0 cb 17 48 40
       6.0782795 -1.7123104 -6.0561156 3.1264522
0002b0 e2 e8 ff bf 24 0c a9 40 f6 ff bc c0 3d b0 52 bd
       -1.9992945 5.282732 -5.906245 -0.051437605
0002c0 16 93 9c 40 a8 49 03 40 bb ef d9 bd b4 28 57 c0
       4.892955 2.0513706 -0.10641428 -3.3618593
0002d0 e9 fd 00 3e aa 4e 85 40 e3 7d 9b 40 d0 63 c7 40
       0.12596859 4.1658525 4.859117 6.230934
0002e0 7a b9 0b bf 72 92 b8 40 b6 da 2b be 6e 7b 6f bb
       -0.5457989 5.7678766 -0.1678265 -0.0036542076
0002f0 6f 7e 12 bd 4c 45 de c0 35 bc 95 3f 93 d0 83 3d
       -0.035765108 -6.945959 1.1698061 0.06436267
000300 e2 f3 82 40 96 86 ac 3d 36 46 60 c0 02 b7 0b c1
       4.092271 0.08424108 -3.5042853 -8.73218
000310 80 2f a1 c0 ec c7 1f bf 52 ca 4d 3e 55 2d 70 40
       -5.0370483 -0.6241443 0.2009671 3.7527668
000320 3a d1 3b c0 04 cf bf 40 8a fa 2e 40 dd fa ec 40
       -2.9346452 5.9940205 2.7340417 7.405623
000330 32 18 c1 40 90 69 7a c0 8b f4 c9 40 9e d2 ad 3d
       6.0342035 -3.912693 6.3111014 0.08487438
000340 29 5f 30 bf 8d fa 58 bf e4 05 0e 3e e6 5b b9 40
       -0.688952 -0.8475731 0.13869435 5.792468
000350 a4 25 35 be 7c e4 f5 c0 e1 fb 86 bf d8 1d fb bf
       -0.1769014 -7.684141 -1.0545617 -1.9618483
000360 40 98 96 40 69 7b 27 c1 c6 8f a2 bd 7a 4c 8c 3a
       4.706085 -10.467629 -0.07937579 0.0010703944
000370 22 2c 14 3e 36 74 8c bf a8 ea bc bf db c4 03 3e
       0.1446996 -1.0972965 -1.4759111 0.12868063
000380 fa 82 61 40 81 99 14 3e 97 59 57 c0 4e 5d 27 c1
       3.5236192 0.14511682 -3.3648431 -10.460279
000390 4b 67 83 c0 0d d7 6b be 7d ca da 3b 99 f9 04 40
       -4.106359 -0.23031254 0.0066769705 2.0777342
0003a0 77 6d 60 bf b1 82 b8 40 fa a9 fa bf 42 64 ca 40
       -0.8766703 5.7659535 -1.9583123 6.3247385
0003b0 96 d6 ca 40 d7 2b 83 c0 45 f1 52 40 d9 4f d7 bd
       6.3386946 -4.0991015 3.295976 -0.105132766
0003c0 af c9 13 3f 3d 0a 91 3f eb b3 a9 bd 99 df a8 40
       0.5772962 1.133125 -0.0828627 5.2772946
0003d0 03 46 f4 3d 3a d8 25 c1 8f 35 9e bf f9 d5 3d 40
       0.11927416 -10.36529 -1.2360095 2.9661849
0003e0 d1 a4 6e 40 62 8f 8c c1 3b 32 84 3c 35 c5 e4 3c
       3.7288096 -17.570011 0.016137233 0.027926067
0003f0 84 81 98 bd 00 6a 09 c1 57 af da c0 fa fc 95 bd
       -0.07446578 -8.588379 -6.833904 -0.07323642
