rl_trainer/models/running-competition/DuelingDQN/run1/trained_model/qnetwork_stable_5300score_-399.0.pth (torch, 177141 bytes, 15 tensors)

encoder.net.0.weight f4 [8, 1, 3, 3]
0	0xc0bc47dd	-5.8837724
1	0x407294bd	3.7903283
2	0xc007b14f	-2.120197
3	0xbfdfd172	-1.7485793
4	0x3f9b2859	1.2121688
5	0x40e0631a	7.0120974
6	0xc0281632	-2.6263547
7	0x413f0e61	11.94101
8	0x3de9d259	0.11417074
9	0xc01225df	-2.2835615
10	0xc10d9a85	-8.8502245
11	0xc041f270	-3.0304222
12	0xbff53e7d	-1.9159695
13	0x40a0a5af	5.020225
14	0xbfa9bbca	-1.3260434
15	0x40399342	2.899613
16	0x40178055	2.3672078
17	0x417fc028	15.984413
18	0x4038631f	2.8810499
19	0x3feba83c	1.8410716
20	0x40579570	3.368496
21	0x3ffd0d8f	1.9769763
22	0xbf87859c	-1.0587649
23	0x40e5200a	7.160161
24	0x3f1a8b62	0.6036893
25	0xc0e5060d	-7.1569886
26	0x415e67df	13.900359
27	0xc080ba6c	-4.0227566
28	0xc16b1a81	-14.693971
29	0x40854302	4.1644297
30	0x3fd7cf10	1.6860065
31	0x413d6b2c	11.838665
32	0x40b0040c	5.500494
33	0xc04138d7	-3.0190942
34	0xc1204a83	-10.018191
35	0xc0b90c92	-5.7827845
36	0xc014235e	-2.3146586
37	0x416b2382	14.696169
38	0xbdf63c11	-0.120231755
39	0xc0c1c605	-6.0554223
40	0x3f2e03a1	0.6797429
41	0x4090671d	4.512587
42	0xc0d26120	-6.574356
43	0xc09d2e2b	-4.9118857
44	0xbfe278e9	-1.7693149
45	0x4091f106	4.560672
46	0x40501a64	3.2516108
47	0x3fcb3eb1	1.5878507
48	0x409b4993	4.852731
49	0x4098efb7	4.779262
50	0x409aca9b	4.837232
51	0x40bd797b	5.921079
52	0x40f34b47	7.602939
53	0x4112a7fc	9.166012
54	0x41397900	11.592041
55	0x403c72c1	2.944504
56	0x3f90c2fc	1.1309505
57	0xc0e040e4	-7.007921
58	0xc0e48839	-7.1416287
59	0xbf3395e1	-0.7015057
60	0xc08ac5b5	-4.336634
61	0xc06249ae	-3.535747
62	0xbf968072	-1.1757948
63	0x4067b795	3.62058
64	0x40a055d9	5.0104795
65	0x40685782	3.630341
66	0x40bc2c61	5.8804173
67	0x40d5cc7a	6.6812105
68	0x40bbf24a	5.8733263
69	0x403ba565	2.93197
70	0x40538c08	3.3054218
71	0xb9b21a64	-0.00033970468

encoder.net.0.bias f4 [8]
0	0xbb376ee7	-0.0027989687
1	0x3ea38373	0.31936225
2	0x3f59fdb4	0.85152745
3	0x40377503	2.8665168
4	0x3dcf5b45	0.1012483
5	0xbfa46e42	-1.2846148
6	0x3fa7ddf5	1.3114611
7	0xbe3824a2	-0.17982724

encoder.net.3.weight f4 [8, 8, 3, 3]
0	0xc0998ebf	-4.798675
1	0x3f9dd0bf	1.2329329
2	0x40bd2579	5.9108243
3	0xc0a0e257	-5.0276294
4	0xc0370100	-2.859436
5	0x406e5f46	3.724565
6	0xbfe1ddd5	-1.7645823
7	0xc11f6adb	-9.963588
8	0xc05ed98e	-3.4820285
9	0xc0957f08	-4.6717567
10	0x40840307	4.1253695
11	0x401da9e3	2.463494
12	0xbef383d7	-0.47561523
13	0xbe2752d4	-0.1634019
14	0x401ccea6	2.4501128
15	0xbf5e945b	-0.8694512
16	0xc0a766fd	-5.231322
17	0xbfe1e7fd	-1.7648922
18	0x3efc3f1e	0.49266905
19	0x40a994f7	5.299434
20	0x40a75590	5.2291946
21	0xc01d803a	-2.4609513
22	0x3f18d772	0.59703743
23	0x407cca9e	3.9498668
24	0xbfba5aa0	-1.4558907
25	0xbe87d8fc	-0.26532733
26	0xbf92c763	-1.1467098
27	0xc0e653c5	-7.197726
28	0x40225947	2.536699
29	0x40cefd43	6.4684157
30	0xc0879b38	-4.2376976
31	0xc007ee53	-2.1239212
32	0x406f1346	3.7355514
33	0x3f23b024	0.63940644
34	0xc00df5ed	-2.218135
35	0x408630aa	4.1934404
36	0xc0d3cb9e	-6.6186056
37	0x40340182	2.812592
38	0x413f197e	11.943724
39	0xc09ed026	-4.9629087
40	0xc02cd1f7	-2.7003152
41	0x413bea6a	11.74473
42	0xc0221efa	-2.5331407
43	0xc0a5c600	-5.18042
44	0x409af03e	4.8418264
45	0xbf22d4f5	-0.63606197
46	0x3e2c040a	0.16798416
47	0x3fbc9a8f	1.4734668
48	0xc00bc897	-2.184118
49	0xc02b0c4d	-2.6726258
50	0x3faf8362	1.371197
51	0x3e53e9af	0.20694612
52	0xbfcd1504	-1.6022038
53	0x3e9edef7	0.31029484
54	0xc011c360	-2.2775497
55	0xc011bf44	-2.277299
56	0xbfdb1b52	-1.7117712
57	0x3f424293	0.75882834
58	0xbfa329eb	-1.2747167
59	0xc04c7b02	-3.1950078
60	0x40bb0c01	5.8452153
61	0xc04702f1	-3.1095545
62	0xc0d20e86	-6.564273
63	0xbf23eca8	-0.64032984
64	0x3a0b5983	0.00053157675
65	0x3fb7f4a2	1.4371531
66	0xc0017fc7	-2.023424
67	0xc0619ee6	-3.5253234
68	0xbeab90c9	-0.335089
69	0xbfda9667	-1.7077149
70	0xc081d0c6	-4.056735
71	0xc01a67eb	-2.4125926
72	0x3e87765e	0.26457494
73	0x3fe72f27	1.8061265
74	0x3fce81da	1.6133378
75	0x3f00aede	0.50266826
76	0x3fc2a74a	1.5207303
77	0x40149b3c	2.3219748
78	0x3fa0d3eb	1.2564672
79	0x3fc50329	1.5391589
80	0x40281432	2.6262326
81	0xbec65aaa	-0.38741046
82	0x3eae3b12	0.34029442
83	0x3ed1495c	0.4087628
84	0x3e30c079	0.17260922
85	0xbf8a1ed5	-1.0790659
86	0xbcc88005	-0.024475107
87	0x3f6efabe	0.9335135
88	0x3e30cd7e	0.17265889
89	0xbd9aa2e6	-0.07550602
90	0x3f9f5304	1.2447209
91	0x3ff1ef6a	1.8901188
92	0x401ff8c4	2.4995584
93	0x3fcb0cd3	1.5863289
94	0x401cfaa3	2.4527977
95	0x3ff284e8	1.894681
96	0x3f6ef23c	0.9333837
97	0x40134fc8	2.3017445
98	0x3fdde326	1.7334945
99	0xbf1d9594	-0.61556363
100	0xbfa89359	-1.3169967
101	0x3f0af3f7	0.5427851
102	0xc0114e42	-2.2704015
103	0xc085d255	-4.1819253
104	0xc029d34c	-2.6535215
105	0xbee8c8ad	-0.45465603
106	0xc09d4bcc	-4.9155025
107	0xc043ce00	-3.0594482
108	0xbf69429e	-0.91117275
109	0xbf9adf52	-1.2099402
110	0xbd418379	-0.047244523
111	0x3e2f9886	0.17148027
112	0xc0d66f3b	-6.701078
113	0xc00de92e	-2.2173572
114	0x400081bc	2.0079184
115	0xc00a4b78	-2.1608562
116	0xc01d59e3	-2.4586112
117	0x402e6652	2.7249951
118	0x400e6baf	2.2253225
119	0x40241dc4	2.5643167
120	0x407dcf31	3.965771
121	0x405d072d	3.453563
122	0x40621628	3.5326023
123	0x40515479	3.2707808
124	0x402acc7e	2.6687312
125	0x40553512	3.3313642
126	0x3f31f1fd	0.6950987
127	0x3fdbe769	1.7179996
128	0xbfeb0184	-1.8359838
129	0xbfdd5385	-1.7291113
130	0xc0809176	-4.0177565
131	0xc05e7c5a	-3.4763398
132	0xc07a9176	-3.9151282
133	0xc12680a7	-10.406409
134	0xc073a2b6	-3.806806
135	0x40480c99	3.125769
136	0x4010c4c6	2.26201
137	0x4032a801	2.7915041
138	0x407af8a7	3.9214265
139	0x403c134b	2.9386775
140	0x40676a0f	3.6158483
141	0x40659e70	3.5877953
142	0x403bcef1	2.9345057
143	0x407ab9a8	3.9175816
144	0x3f462b41	0.7740975
145	0x4038de48	2.888567
146	0x40471ef1	3.1112635
147	0x4091975e	4.5497274
148	0x40a44dbf	5.1344905
149	0x4057b477	3.3703897
150	0x40c4ee1a	6.154065
151	0x40c63346	6.193759
152	0x3f84b8d3	1.0368904
153	0xbf120d3a	-0.5705143
154	0x3db0d031	0.08633459
155	0xbee27154	-0.44227087
156	0x3fb203bc	1.390739
157	0x3f020dab	0.50802106
158	0xc00de2e5	-2.2169735
159	0x3f0384d4	0.51374555
160	0x4040c2ee	3.0118976
161	0xc009ddd5	-2.1541646
162	0x40c47d2e	6.1402807
163	0x40c04706	6.00867
164	0x402397ba	2.5561357
165	0x40ec12a7	7.377277
166	0x40dc426a	6.883107
167	0x401df823	2.46827
168	0x40e04608	7.0085487
169	0x40d02d8d	6.5055604
170	0x3d723b33	0.059138488
171	0xbf31fab2	-0.69523156
172	0xbea1f98e	-0.31635708
173	0x3fa240c5	1.2676016
174	0xbfc85541	-1.5651017
175	0xc020da99	-2.5133421
176	0xbecd28e4	-0.4007026
177	0x3d6b6f08	0.057478935
178	0xbf40a6d3	-0.75254554
179	0xbf9684fd	-1.1759335
180	0x40270dd1	2.6102183
181	0xbf68908a	-0.9084555
182	0x3ef33b28	0.4750607
183	0x3c032964	0.008005474
184	0xbe45b369	-0.19306721
185	0x3ff0c98a	1.8811505
186	0x40538870	3.3052025
187	0x401e8aba	2.4772172
188	0x3f5a9a7e	0.85391986
189	0xc01dc036	-2.4648566
190	0xc029220e	-2.6427035
191	0xc0679fd5	-3.6191304
192	0xc05ce57d	-3.4515069
193	0xc0832b37	-4.0990252
194	0xc08f0063	-4.468797
195	0xc05b8b57	-3.4303796
196	0xc0a85fc8	-5.261692
197	0xc07e7384	-3.9758005
198	0xc03fe9bf	-2.9986417
199	0xbf908051	-1.1289159
200	0x3f36f453	0.7146656
201	0xbf23dba3	-0.64007014
202	0xbf57a724	-0.8423941
203	0x401b2d14	2.4246264
204	0xc0421ee0	-3.0331345
205	0xc073ed93	-3.8113754
206	0x3fbf3d21	1.494053
207	0x3fb346ee	1.4006021
208	0xbebf1b89	-0.37325695
209	0xbfd23722	-1.6423075
210	0x3f2a6697	0.6656279
211	0xbf9c0742	-1.2189715
212	0xc0193390	-2.3937721
213	0x3ee63978	0.4496572
214	0xbfe47ad8	-1.7849989
215	0xc02671ee	-2.6007037
216	0x3eaa8ad8	0.33309054
217	0x3feaff57	1.8359174
218	0x400f2778	2.236784
219	0x40344c25	2.8171475
220	0x3e32d5ef	0.17464422
221	0x3fbb6d97	1.4642819
222	0x403533c7	2.8312852
223	0xbf3c01b4	-0.734401
224	0xbf9c3166	-1.2202575
225	0x4002af12	2.0419354
226	0x404e49ea	3.2232614
227	0x4094b88f	4.647529
228	0x404c1c77	3.1892374
229	0x4020035b	2.5002048
230	0x40816da4	4.044634
231	0x40704317	3.7540948
232	0xbf1c7a20	-0.6112385
233	0x40730c7b	3.7976367
234	0xc0643953	-3.5659988
235	0xc0b14ff1	-5.5410085
236	0xbf61d1d1	-0.8821078
237	0xbfe30e3e	-1.7738721
238	0xc09f5ae4	-4.979845
239	0xc06b35a5	-3.6751492
240	0xbfe2e1c6	-1.772515
241	0xc0765d16	-3.8494315
242	0xc0414722	-3.0199666
243	0x3fc4f3f8	1.5386953
244	0x4094e642	4.6531076
245	0x40fe1758	7.9403496
246	0x40b18ceb	5.548452
247	0x40b08df8	5.51733
248	0x410d9107	8.847907
249	0x40d46c6d	6.6382356
250	0x409952fb	4.7913795
251	0x40ab7e20	5.359146
252	0xbf9f7ff6	-1.2460926
253	0xbc5de004	-0.013542179
254	0x40950d76	4.657893
255	0x3faa9002	1.3325198

encoder.net.3.bias f4 [8]
0	0x40bd3047	5.912143
1	0x3dd522b2	0.10407008
2	0x3f8aba29	1.0838062
3	0xc0631a21	-3.5484698
4	0x40d295c3	6.5807815
5	0xc0056c5b	-2.0847385
6	0xbe606263	-0.21912532
7	0x3fb31d28	1.3993273

feauture_layer.0.weight f4 [64, 512]
0	0x3bf60652	0.0075080777
1	0x3d368955	0.044564564
2	0xbc381313	-0.011235016
3	0x3d1f8c77	0.038952317
4	0xbc9ebd37	-0.019377334
5	0x3cfa5cf0	0.030561894
6	0xbd393da0	-0.045224786
7	0xbc11f9e9	-0.008909681
8	0xbc439b9c	-0.011938956
9	0x3c52a57d	0.012856838
10	0x3c3ad311	0.011402861
11	0x3d052f1a	0.032515623
12	0xbc48b118	-0.012249254
13	0xbb82598f	-0.0039779614
14	0x3ccc939d	0.024972731
15	0xbc930f3f	-0.017951606
16	0x3d09ca1b	0.03364001
17	0xbcd15c1d	-0.025556618
18	0xbb68388c	-0.0035434095
19	0xbc057eb0	-0.00814788
20	0x3c69f279	0.014279001
21	0x3cebfc7d	0.02880692
22	0xbc3974bd	-0.0113193365
23	0xbd10447e	-0.03522157
24	0x3c89d623	0.016825741
25	0x3c930b28	0.017949656
26	0x3cb82200	0.02247715
27	0xbcf68362	-0.030091945
28	0x3d0d5337	0.034503188
29	0x3d44e548	0.048070222
30	0x3c23b094	0.00999083
31	0xbd1759ec	-0.03695099
32	0x3cd6a307	0.026200784
33	0xbce35c57	-0.027753992
34	0x3bf0283d	0.0073290155
35	0x3c4110de	0.011783807
36	0xbc7bca25	-0.015368019
37	0x3c675203	0.014118674
38	0xbd3f32fd	-0.046679486
39	0x3c24c577	0.010056845
40	0xbd05d579	-0.032674287
41	0xbc23a6cd	-0.009988499
42	0xb929d0cb	-0.00016194877
43	0x3d302d4d	0.043011952
44	0xbc81357b	-0.015772572
45	0x3cd11b40	0.02552569
46	0xbc62bbe4	-0.013838742
47	0xbce6408d	-0.028106952
48	0xbd3194cd	-0.043354798
49	0xbd3b693c	-0.045754656
50	0x3d20d8f6	0.03926941
51	0xbc3495a4	-0.011022005
52	0x3b10aad0	0.0022074468
53	0x3c021689	0.007939943
54	0x3cd3a801	0.025836946
55	0x3cf39c19	0.02973752
56	0x3cfaba4d	0.030606413
57	0xbd0b8a67	-0.034067538
58	0x3943fcdc	0.00018690847
59	0xbcd63b5e	-0.026151355
60	0xbcced9f7	-0.025250418
61	0x3bda6bb4	0.0066656712
62	0x3d1a7f97	0.037719335
63	0xbd0d124b	-0.034441274
64	0x3cc1d9db	0.023663452
65	0xbcc1baf6	-0.02364872
66	0xbc5a30c5	-0.013317292
67	0x3cfc474b	0.030795714
68	0xbc78f640	-0.015195429
69	0xba9a502e	-0.0011773163
70	0xbd0ec77d	-0.034858216
71	0x3d04ed89	0.032453094
72	0xbc0e4c5c	-0.008685198
73	0xbd0edc6b	-0.034878176
74	0x3c0581e7	0.008148647
75	0xbd148497	-0.03625926
76	0xbd23f481	-0.0400281
77	0xbb2e1833	-0.0026564717
78	0x3ced6fa2	0.028983895
79	0xbc9b7d2c	-0.018980585
80	0x3ca65353	0.020303404
81	0x3d0e3809	0.034721408
82	0x3ccfef8f	0.025382785
83	0xbce43c77	-0.027860863
84	0xbc1c40c1	-0.009536923
85	0xbc9ba730	-0.01900062
86	0xbd2afd28	-0.041745335
87	0xbbfe3d33	-0.0077587604
88	0x3d0b69c6	0.03403642
89	0x3d0af684	0.033926502
90	0xba964313	-0.0011464081
91	0x3ba4ec0a	0.005033021
92	0xbcc29744	-0.02375377
93	0x3cedf2db	0.029046467
94	0xbcbfee20	-0.023428977
95	0xbd105348	-0.035235673
96	0x3bbb4165	0.0057145827
97	0x3cbf9781	0.023387672
98	0xbd348b1a	-0.04407797
99	0x3d121d03	0.0356722
100	0x3c3747e6	0.0111865755
101	0xbd0b99cc	-0.03408222
102	0xbc56e7da	-0.013116801
103	0x3d0ca771	0.034339372
104	0xbd1761a7	-0.036958363
105	0xbc91abab	-0.017782053
106	0x3c2b3b3f	0.010451137
107	0xbd330408	-0.043705016
108	0x3c94a867	0.018146707
109	0x3c9b75e4	0.018977113
110	0x3cbbf8eb	0.022945842
111	0xbceb2724	-0.028705187
112	0x3d2bf29b	0.041979413
113	0xbcf731e4	-0.030175157
114	0x3d2b465d	0.04181515
115	0xbd3f39ad	-0.046685863
116	0xbd326ca2	-0.04356063
117	0x3cbb1ad8	0.022839949
118	0x39b7b608	0.00035040104
119	0x3ae70d7b	0.0017627919
120	0xbcee441b	-0.02908521
121	0xbca553c6	-0.020181548
122	0xbc6b1aad	-0.014349622
123	0xbd2c39b2	-0.04204721
124	0xbaf77f85	-0.0018882608
125	0x3b68b9fb	0.0035511244
126	0xbb8bd25c	-0.00426702
127	0x3c9ed690	0.01938942
128	0x3d39ad65	0.045331378
129	0x3bc12e1a	0.0058953883
130	0xbc506c16	-0.012721082
131	0xbcbe1392	-0.023202691
132	0xbd0a7d6c	-0.033811018
133	0xbd1485c0	-0.036260366
134	0xbb81cbc9	-0.0039610607
135	0xbb98b38c	-0.0046600755
136	0x3cbd720b	0.023125669
137	0xbcc3b9c9	-0.0238923
138	0x3d0403a2	0.032230027
139	0xbd00edd1	-0.0314768
140	0x3a7ce094	0.0009646502
141	0x3d26b6fe	0.04070186
142	0x3d3ce277	0.04611441
143	0xbcc2cb5f	-0.023778616
144	0x3c3b539e	0.01143351
145	0x3c06c591	0.008225814
146	0xbc7ad97a	-0.0153106395
147	0xbc482a69	-0.012217143
148	0x3c48d5c3	0.012257996
149	0xbcf0822c	-0.029358946
150	0x3b0a954b	0.0021146114
151	0x3c7fe749	0.0156191075
152	0xbc64c692	-0.0139633585
153	0x3cf756de	0.030192789
154	0x3a44a2a2	0.0007501041
155	0x3cbc5e2d	0.022994125
156	0x3cdd7605	0.027033815
157	0xbc8c9709	-0.017161863
158	0x3c8ee47f	0.01744294
159	0xbc9236ba	-0.017848361
160	0xbb77f7e0	-0.0037836954
161	0xbc684120	-0.014175683
162	0xbbeeb50d	-0.0072847665
163	0xbc9cebf4	-0.01915548
164	0x3bb43206	0.0054991273
165	0xbaab2f45	-0.0013060352
166	0x3cb63cc4	0.022245772
167	0xbc60e20c	-0.013725769
168	0x3bad8607	0.0052955183
169	0xbc43f5c9	-0.011960455
170	0xbd2f4786	-0.04279282
171	0x3c82a298	0.015946671
172	0x3a8c9dec	0.0010728217
173	0xbcad1c8e	-0.02113178
174	0xbcca44f3	-0.02469108
175	0x3c89b333	0.016809082
176	0xbc201e53	-0.009772855
177	0x3cf55ed7	0.02995245
178	0xba9a6acc	-0.0011781096
179	0x3c88c15a	0.01669376
180	0x3c9dbd26	0.019255232
181	0xbc31aa08	-0.010843761
182	0x3c5cee50	0.0134845525
183	0x3d248f1b	0.04017554
184	0x3aafebe9	0.0013421747
185	0x3b777dd6	0.0037764213
186	0x3b96f0f9	0.004606363
187	0x3cfaa9ee	0.030598607
188	0xbc98d9dd	-0.018658573
189	0xbcc072e7	-0.02349229
190	0x3cd78cbf	0.02631223
191	0xbd0ecbbe	-0.034862272
192	0xbaae5dc9	-0.0013303097
193	0xbcbed9aa	-0.02329715
194	0x3cc55084	0.024086244
195	0xbd3cdc88	-0.046108752
196	0x3cb90b9c	0.022588544
197	0x3d1f4d5a	0.038892128
198	0x3b4958cd	0.0030723095
199	0xbc2fa2e5	-0.010719989
200	0x3d27cb7d	0.040965546
201	0xbcbf5edb	-0.02336066
202	0xbc076d3b	-0.008265789
203	0xbcb72c04	-0.022359855
204	0xbc371ff6	-0.011177054
205	0x3ba31228	0.0049765296
206	0x3a3b5556	0.00071462
207	0xbc54e651	-0.012994365
208	0xbd47781d	-0.048698533
209	0xbb21fea8	-0.0024718437
210	0xbbb6b25d	-0.005575462
211	0x3b82f236	0.003996159
212	0x3cf1fd04	0.029539593
213	0x3d1dd0c6	0.03852918
214	0xbd022f30	-0.031783283
215	0xbb233858	-0.002490541
216	0xbcbc05eb	-0.02295204
217	0xbd3005d6	-0.042974316
218	0xbd1222a2	-0.03567756
219	0x3d167656	0.036733948
220	0x3ca879f7	0.02056597
221	0x3c973dbc	0.018462054
222	0x3ca6c7bb	0.02035891
223	0xbd186760	-0.03720796
224	0xb9e1edf8	-0.00043092645
225	0x3d17cdd0	0.037061512
226	0xbce248e6	-0.027622651
227	0x3d0dc863	0.03461493
228	0x3be598d3	0.0070067435
229	0x3cd6feda	0.02624457
230	0xbcb8a4c7	-0.02253951
231	0x3c9264e5	0.017870376
232	0xbd2f34b5	-0.042774875
233	0xbb933b2c	-0.004493138
234	0x3c3a10c3	0.011356535
235	0x3c0ef720	0.008725911
236	0x3d05da62	0.03267897
237	0x3d211e0c	0.039335296
238	0x3d1b6279	0.037935708
239	0x3cf0f5ba	0.029414047
240	0x3d0943c1	0.03351188
241	0xbbb5226f	-0.0055277864
242	0xbd1c49a4	-0.038156167
243	0xbca66b5f	-0.02031487
244	0xbc17a51b	-0.009255673
245	0xbce6b358	-0.02816169
246	0x3c96a313	0.018388307
247	0x3c991cf9	0.018690573
248	0x3c182ec8	0.009288497
249	0x3c1603e6	0.009156203
250	0x3d0def42	0.034652002
251	0x3c411349	0.011784383
252	0xbd308376	-0.04309412
253	0xbd14edfa	-0.036359765
254	0x3c7a488b	0.015276085
255	0x3c3ab303	0.011395219

feauture_layer.0.bias f4 [64]
0	0x3c88d2be	0.016702052
1	0xbd8eb3c1	-0.06967879
2	0xbc880529	-0.016604023
3	0xbc7a1cb8	-0.015265636
4	0x3c090e7a	0.008365268
5	0x3bf00831	0.0073251952
6	0xbd054dbb	-0.032544833
7	0xbc85114f	-0.016243605
8	0x3fe260d4	1.76858
9	0x3c410e46	0.011783188
10	0xbd3c7cb7	-0.046017375
11	0x403bd131	2.934643
12	0x3e163548	0.14668763
13	0xbc3db076	-0.011577716
14	0xbc621f42	-0.013801398
15	0xbcdacb0d	-0.02670815
16	0xbce97c04	-0.028501518
17	0xbd46dbca	-0.04854945
18	0x3cb5897f	0.02216029
19	0x3c98875e	0.018619236
20	0xbc62929f	-0.0138289025
21	0x3f5d0c28	0.86346674
22	0x3ea86110	0.32886553
23	0xbc0d9ea7	-0.008643783
24	0x3f72694b	0.94691914
25	0x4010f9bf	2.2652433
26	0xbd798b2a	-0.060923733
27	0x3c887029	0.016655045
28	0x3f024bfb	0.50897187
29	0xbc56f07f	-0.013118862
30	0xbca7b0f0	-0.020470113
31	0x3c325d65	0.010886525
32	0x3ce8765c	0.02837675
33	0x40098103	2.1484993
34	0x3c079fcb	0.008277844
35	0xbcc0374f	-0.023463873
36	0xbb04f4a7	-0.0020287426
37	0x3f385706	0.7200779
38	0x3f6ed355	0.9329122
39	0xbb0c5ef7	-0.0021418908
40	0xbc7c8007	-0.0154113835
41	0x3cc8e174	0.024521567
42	0xbc72768a	-0.01479877
43	0x3fdb30e1	1.7124292
44	0x3eacfa1f	0.33784577
45	0x3afb582a	0.0019176055
46	0x3ef9cf44	0.48790944
47	0xbcb184ad	-0.02166971
48	0xbc051d9e	-0.008124737
49	0x3feebf58	1.8652143
50	0x3fe42b5b	1.7825731
51	0xbd0a1a77	-0.033716645
52	0x3cf2f9f7	0.029660208
53	0x3f5e2f3e	0.86790836
54	0x3f945a2e	1.1590021
55	0xbc8fa3f6	-0.017534237
56	0xbc6a7ccd	-0.014311981
57	0xbd0c0b22	-0.034190305
58	0x3c6991d1	0.014255957
59	0x3c882b28	0.016622141
60	0xbc5b3e32	-0.013381528
61	0x3c4f1eca	0.012641618
62	0xbd0ecd16	-0.034863554
63	0xbcde79b7	-0.027157648

feauture_layer.2.weight f4 [64, 64]
0	0xbddacf7c	-0.10684106
1	0x3dcf956e	0.10135923
2	0xbbc91e00	-0.0061376095
3	0xbd2b11a0	-0.041764855
4	0x3d8dfe04	0.06933215
5	0xbdf4d3d2	-0.11954464
6	0x3d924cbe	0.07143544
7	0xbb181580	-0.0023206174
8	0xbdee94ec	-0.11649498
9	0x3cee87a8	0.02911742
10	0xbd14a3ec	-0.03628914
11	0xbd4dee88	-0.05027631
12	0x3d023024	0.03178419
13	0x3cb097f8	0.02155684
14	0xbda9199c	-0.08256838
15	0xbd376e28	-0.044782788
16	0x3dccc9da	0.09999438
17	0x3d815694	0.063153416
18	0xbdf858a8	-0.12126285
19	0xbcf8a280	-0.030350924
20	0xbdc2804c	-0.09497127
21	0xbb494fc0	-0.00307177
22	0x3cb1a7e0	0.021686494
23	0x3d1cf688	0.038321048
24	0xbccd0420	-0.025026381
25	0xbd54d160	-0.051957488
26	0x3ddef984	0.10887435
27	0x3df47a66	0.11937408
28	0xbdc95280	-0.09830189
29	0xbd7fc0b4	-0.062439635
30	0xbd06a954	-0.032876328
31	0xbd724e60	-0.059156775
32	0x3c39f010	0.011348739
33	0xbd342048	-0.0439761
34	0xbcc31db8	-0.023817882
35	0x3dcd2526	0.10016851
36	0x3d57e1b0	0.052705467
37	0xbcac99d0	-0.021069437
38	0x3cc89ba0	0.02448827
39	0xbc8589b0	-0.016301006
40	0x3c840f08	0.016120449
41	0xbd7816a8	-0.06056848
42	0xbdd4a2c0	-0.103826046
43	0x3d2bd530	0.04195136
44	0xbdc5c0fc	-0.096559495
45	0xbdc0f372	-0.094214335
46	0xbd937572	-0.07200135
47	0x3d0c9520	0.034321904
48	0x3cfa9f98	0.030593678
49	0xbdc7a9fa	-0.09749217
50	0xbd31c53c	-0.043400988
51	0x3d02c800	0.031929016
52	0xbda4595c	-0.080248564
53	0x3d592340	0.053012133
54	0xbdf191dc	-0.117953986
55	0xbdb0ee00	-0.08639145
56	0x3cd1e8d8	0.025623724
57	0xbcd73960	-0.026272476
58	0xbdd6900c	-0.104766935
59	0xbdf0506c	-0.11734089
60	0x3b9ceda0	0.0047890693
61	0x3d7dc0d0	0.06195146
62	0xbdbd107a	-0.09231658
63	0x3ce62f28	0.028098658
64	0xbdb8c5dd	-0.090221144
65	0xbd32dab4	-0.043665603
66	0x3d8c00ea	0.06836112
67	0x3ccab885	0.024746189
68	0x3db4fc83	0.08837225
69	0x3df513e4	0.119666845
70	0x3dcf3d04	0.1011906
71	0x3da2ac76	0.079430506
72	0xc0538ec2	-3.3055882
73	0xbd965995	-0.07341305
74	0x3da58337	0.08081668
75	0x3f5cdd8b	0.8627555
76	0x405bc4b9	3.433882
77	0xbd2e642f	-0.04257601
78	0x3d36159d	0.044454206
79	0xbc144149	-0.009048768
80	0xbda53a37	-0.08067744
81	0xbd956bb4	-0.07295933
82	0x3d86f532	0.06589736
83	0x3d905d03	0.070489906
84	0x3c156d26	0.009120261
85	0x4034d25f	2.82534
86	0xbf7c4ea5	-0.985575
87	0xbdadf0bd	-0.08493183
88	0xbe0b0164	-0.13574749
89	0x3f0720b7	0.52784294
90	0x3d5f2c97	0.054485884
91	0xbaa40574	-0.0012513832
92	0xbf367f35	-0.7128785
93	0x3df6ca65	0.120503224
94	0xbd8b7f5e	-0.06811403
95	0x3de98c28	0.11403686
96	0x3db9ebb2	0.090781584
97	0xc02585a5	-2.586282
98	0x3d99af6d	0.07504163
99	0xbd29cdea	-0.04145614
100	0xbd8d8ea9	-0.06911976
101	0x3f2358b4	0.63807225
102	0x3fb5568d	1.4167038
103	0xbd025cba	-0.031826712
104	0xbdb7aa56	-0.08968036
105	0xbd815cec	-0.063165516
106	0x3d41e08a	0.047333278
107	0xc065f9a2	-3.5933614
108	0x3f93b812	1.1540549
109	0x3d7e6634	0.062109187
110	0x406fa3ea	3.7443795
111	0xbd8bb622	-0.068218485
112	0x3d7b6097	0.061371412
113	0xc00f1976	-2.235929
114	0x4004f37b	2.0773609
115	0xbc3cd779	-0.011525982
116	0xbd7396ec	-0.059470102
117	0xbd21e392	-0.03952367
118	0x40272277	2.6114786
119	0x3d8f550e	0.06998645
120	0x3da55838	0.08073467
121	0x3d55784c	0.052116677
122	0x3ca603f1	0.020265551
123	0x3de22e06	0.110439345
124	0xbd269955	-0.040673573
125	0x3d98d369	0.07462198
126	0x3dd8a450	0.10578215
127	0xbb16bf43	-0.0023002184
128	0x3d246c6c	0.04014246
129	0xbb2f3600	-0.0026735067
130	0x3d9477a6	0.07249384
131	0x3dd50bb4	0.10402623
132	0x3d60832c	0.054812595
133	0xbd8889d0	-0.06666911
134	0x3d2212b4	0.039568618
135	0xbdfc7d02	-0.12328531
136	0x3f2a7d2e	0.6659726
137	0x3d0532b8	0.032519072
138	0x3cab4178	0.020905241
139	0xbf1b6c6f	-0.6071233
140	0xbfcaad37	-1.5834111
141	0xbd4fadf5	-0.050703008
142	0xbdeb5134	-0.11490098
143	0x3dc2f212	0.095188275
144	0x3bafad60	0.005361244
145	0xbdf9eb36	-0.12203066
146	0xbce6fd80	-0.02819705
147	0xbdda39f0	-0.10655582
148	0xbda414d0	-0.08011782
149	0xc09ea7ff	-4.9580073
150	0xc1910992	-18.129673
151	0xb9b78a00	-0.00035007298
152	0xc0d25ce2	-6.573838
153	0xbd0404dc	-0.032231197
154	0xbd8b66ce	-0.06806718
155	0xbd29daf4	-0.041468576
156	0xc10f71d4	-8.96529
157	0xbd5fc548	-0.0546315
158	0xba673400	-0.0008819699
159	0xbdbd026e	-0.09228979
160	0xbd9c2d9a	-0.07625885
161	0x3fae30c1	1.3608629
162	0x3d8a9f36	0.06768648
163	0xbdd1d19e	-0.102450594
164	0xbdd5a513	-0.10431876
165	0x3fa40bce	1.2816103
166	0x3f2a5eff	0.665512
167	0x3d58f974	0.052972272
168	0x3d31b4d8	0.043385357
169	0xbc556cb0	-0.013026401
170	0xbde65ce2	-0.11248185
171	0x3fccca95	1.5999323
172	0x40032996	2.0494132
173	0x3c77a120	0.015114099
174	0x3f9873a3	1.191029
175	0xbdeee266	-0.11664276
176	0xbdde632a	-0.10858758
177	0x3d4de0e8	0.050263315
178	0xbd7523be	-0.05984854
179	0xbd1228b8	-0.035683364
180	0x3ba0c080	0.0049057603
181	0x4099ac40	4.8022766
182	0x40726854	3.7876177
183	0x3d8695b4	0.06571522
184	0x3d2788e4	0.040902033
185	0xbdc7f744	-0.09763959
186	0x3d1ffe40	0.03906083
187	0x3da16e1c	0.0788233
188	0x3da8aaf2	0.0823573
189	0xbd44b158	-0.04802069
190	0xbd268c7c	-0.04066132
191	0xbda5bcb0	-0.0809263
192	0x3d2c7baa	0.042110123
193	0x3d88db33	0.06682434
194	0xbdcdaa28	-0.1004222
195	0x3d54fbf8	0.05199811
196	0x3ca3cb64	0.019994445
197	0x3bf962fe	0.0076106777
198	0x3db36335	0.087591566
199	0xbc8b0508	-0.016970173
200	0x40c863f1	6.2622
201	0xbd8e4ddd	-0.06948445
202	0x3ddb9d7f	0.10723399
203	0x3ff585c3	1.9181446
204	0x40db7aa6	6.8587217
205	0xbd4d7201	-0.05015755
206	0xb9f124d4	-0.0004599454
207	0x3c33f679	0.010984057
208	0xbdd5d829	-0.1044162
209	0xbe084910	-0.13309121
210	0xbd247f61	-0.04016054
211	0xbde11942	-0.10991146
212	0x3e0738f9	0.13205327
213	0x408fe141	4.496247
214	0x40ce05de	6.438216
215	0xbde4a128	-0.111635506
216	0x3ea45495	0.3209578
217	0x400f1e8d	2.2362397
218	0xbdd41083	-0.10354712
219	0xbd8eb38a	-0.06967838
220	0x3e39822b	0.18116061
221	0xbcfabfaf	-0.03060898
222	0xbd72d3a4	-0.059283867
223	0xbb94c64b	-0.00454024
224	0x3dc89dfd	0.09795759
225	0x406ca9d8	3.6978664
226	0x3c9e4548	0.019320145
227	0x3dc753eb	0.09732803
228	0xbd3eed10	-0.0466128
229	0x3de60054	0.11230531
230	0x3f01cb4a	0.5070082
231	0x3c9f8781	0.019473793
232	0xbd45927b	-0.048235398
233	0x3d54cb1e	0.05195152
234	0x3d805750	0.062666535
235	0x40867f1d	4.2030168
236	0x3f8c72a3	1.0972484
237	0xbde0ee51	-0.10982955
238	0x3ffb7cd8	1.9647474
239	0x3b5e1f15	0.0033893038
240	0x3cbf4f60	0.023353279
241	0x4077da60	3.8727036
242	0x4074f5c8	3.8275013
243	0xbda15e14	-0.07879272
244	0x3db16da2	0.08663489
245	0x3fb2c32a	1.3965809
246	0x40526e7d	3.2879937
247	0xbddb8ee2	-0.10720612
248	0x3dea7982	0.11448957
249	0x3c8900e0	0.01672405
250	0x3da00c3a	0.07814832
251	0xbde7ee1e	-0.11324714
252	0x3d0cad6f	0.034345087
253	0x3d0902ec	0.033450052
254	0xbdc8fdde	-0.09814046
255	0x3d305da7	0.043058064

feauture_layer.2.bias f4 [64]
0	0x3c762060	0.015022367
1	0x3f2a0101	0.6640778
2	0x3bba1c15	0.005679617
3	0x406a5f29	3.662058
4	0x3e03b88b	0.12863366
5	0xbd33bbd1	-0.043880288
6	0x401dd791	2.4662821
7	0x3fbbf9c7	1.4685601
8	0x4081610a	4.0430956
9	0x3cffff0f	0.031249551
10	0x4083c246	4.117465
11	0x4062b2ed	3.5421708
12	0x3f44d9bb	0.7689473
13	0x3c246bb6	0.010035446
14	0x4096eeb1	4.716637
15	0xbd4c2ade	-0.04984557
16	0x3db36968	0.08760339
17	0x3fd0bb35	1.6307131
18	0x3fafdc2e	1.3739069
19	0x3ec8f7ef	0.39251658
20	0xbc4f1a7a	-0.01264059
21	0x400c1506	2.1887832
22	0xbe19f979	-0.15036573
23	0x3daec7f3	0.08534231
24	0xbf3b5d6d	-0.7318943
25	0xbe00232e	-0.1251342
26	0x3f68621d	0.9077471
27	0x3d1c8514	0.03821285
28	0x3d42e1df	0.04757869
29	0x3f1c848b	0.61139745
30	0x3f7430cb	0.9538695
31	0x3f0b0255	0.54300433
32	0x40802d25	4.005511
33	0xbd0a4528	-0.03375736
34	0x3d82022a	0.06348069
35	0xbd6176fe	-0.05504512
36	0x3e81aced	0.25327244
37	0xbf14f42c	-0.58185077
38	0x3f82ea12	1.0227683
39	0xbe2af7d2	-0.16696098
40	0xbcd00ed0	-0.025397688
41	0xbc73ed52	-0.014888125
42	0x3d4d9d57	0.05019888
43	0xbda92747	-0.08259445
44	0x3ea862a3	0.32887754
45	0x3fd382d8	1.6524305
46	0x408b4186	4.3517485
47	0x3f796f37	0.97435325
48	0xbd6a362b	-0.057180565
49	0x40747103	3.8193977
50	0x3efdb952	0.4955545
51	0x3f3091e5	0.6897262
52	0xbf8905b1	-1.0704862
53	0x3fe4a9df	1.786434
54	0x4087c59c	4.242872
55	0x3f349cf2	0.7055198
56	0xbdcf8847	-0.10133415
57	0x3f2e5832	0.68103325
58	0xbc9d17d2	-0.019176397
59	0xbe81765d	-0.25285617
60	0xbdcd1b45	-0.10014967
61	0x405e0a95	3.4693959
62	0x40198078	2.398466
63	0xbbcc06e0	-0.0062264055

value_stream.0.weight f4 [32, 64]
0	0x3dcb5856	0.09928958
1	0xbfe6fe1a	-1.8046296
2	0x4113c97c	9.2366905
3	0xbcecd613	-0.028910672
4	0xbed56db1	-0.4168525
5	0x3c1a1870	0.00940524
6	0x3e4df81f	0.20114182
7	0xc0867ca5	-4.2027154
8	0x3f05a17f	0.5219955
9	0xc09943af	-4.789512
10	0x3ea2d10e	0.3180012
11	0xc01838c0	-2.3784637
12	0xc14ac05b	-12.671962
13	0xbf03bd5e	-0.51460826
14	0xbead08ca	-0.33795768
15	0xbd44e78b	-0.04807238
16	0xc007e18b	-2.123141
17	0xbeeac0ca	-0.4585021
18	0x3f6a8909	0.9161535
19	0xbf6f8a50	-0.93570423
20	0x3dc132e2	0.09433533
21	0x40083bc6	2.1286483
22	0xbd49f8d2	-0.04930956
23	0xbd1ad569	-0.03780118
24	0x3ed844ac	0.42239892
25	0x3b8b78c8	0.0042563416
26	0xc12a3ebc	-10.640316
27	0x3db1e572	0.08686341
28	0x3c07e650	0.008294657
29	0x4004f874	2.0776644
30	0xc1f23972	-30.27805
31	0xbfffbd2d	-1.9979607
32	0x3f4812dd	0.78153783
33	0xbd87fa04	-0.066394836
34	0xbd7c5566	-0.06160488
35	0xbf82b813	-1.0212425
36	0xbf0e0385	-0.5547412
37	0x40902d38	4.50552
38	0xc09a7241	-4.826447
39	0x3cf2380c	0.02956774
40	0x3d9d41f1	0.07678593
41	0xbdd38891	-0.10328782
42	0x3d48ff95	0.049071867
43	0x3d5741e6	0.05255308
44	0x40b8e2a1	5.7776647
45	0xc0ea1683	-7.315248
46	0x3ed8acfe	0.42319483
47	0x3f8f44a0	1.1192818
48	0x3e036f8c	0.1283552
49	0xbf1d8f85	-0.6154712
50	0x40d4c016	6.648448
51	0x3fbab549	1.4586574
52	0x3ed41123	0.41419324
53	0xbf993e2b	-1.1972097
54	0x3f05dec2	0.52293026
55	0x3fa168a0	1.2610054
56	0x3f01cae7	0.5070023
57	0xbfab36a7	-1.3376054
58	0xc1f0f84b	-30.121237
59	0xbe107a9c	-0.14109272
60	0x3d4e43b6	0.050357543
61	0x3f87bc17	1.0604275
62	0xbf225361	-0.63408476
63	0x3dd524a2	0.10407378
64	0x3dfd9f30	0.12383878
65	0x3fd54f4e	1.6664827
66	0x4108970f	8.53688
67	0xbf57d666	-0.8431152
68	0xbeaa3090	-0.33240175
69	0x3dec842c	0.11548647
70	0x4014fa0b	2.3277614
71	0x3f2e3f75	0.6806558
72	0x3f2026fb	0.6255948
73	0xc0375aef	-2.8649251
74	0xbe6506c9	-0.2236587
75	0xbf5c0f22	-0.8596059
76	0xc072073d	-3.7816918
77	0xbe47d6f7	-0.19515596
78	0xbf1c289a	-0.60999453
79	0x3e076368	0.13221514
80	0xc0618ff7	-3.524412
81	0x40010e1a	2.0164857
82	0xbfe9bd18	-1.8260832
83	0xc0e3f773	-7.123956
84	0xbda6358a	-0.081156805
85	0x3d24b5e1	0.040212516
86	0xbd871e42	-0.06597568
87	0xbc67505a	-0.014118278
88	0xc0507eb8	-3.2577343
89	0xbd9fb3b0	-0.077979445
90	0x40ad8520	5.4225006
91	0xbd9fb1b2	-0.077975646
92	0x3ddb4c04	0.10707858
93	0xbe5743ff	-0.21022032
94	0x402b985c	2.6811743
95	0x405a49c1	3.4107516
96	0x3cfeafa9	0.03108962
97	0x3e0d6ec1	0.1381178
98	0xbdd9774d	-0.10618458
99	0x410cfe8c	8.812145
100	0xbf1df4e0	-0.61701775
101	0x3f527b9b	0.82219857
102	0x3fe77874	1.8083634
103	0x3d81e619	0.06342716
104	0x3d881c04	0.066459686
105	0xbdaac1c9	-0.08337743
106	0xbd8f803a	-0.07006879
107	0xbc949b2c	-0.018140398
108	0x40bd3443	5.9126296
109	0xbf4f0c11	-0.80877787
110	0xbbdfb594	-0.0068270657
111	0xbf5ac4a6	-0.8545631
112	0xbd049bdb	-0.032375198
113	0x3ebf70c2	0.37390715
114	0xbfa93671	-1.3219739
115	0x3f02f495	0.5115445
116	0x3f0ddfe3	0.5541975
117	0x3e268f59	0.1626562
118	0x3e8b1337	0.27163097
119	0x401c8352	2.4455152
120	0x3f9362fa	1.151458
121	0x4039bce1	2.9021533
122	0x40b036f3	5.5067077
123	0xc034c394	-2.8244371
124	0xbd9931c8	-0.07480198
125	0x3e86aefa	0.26305372
126	0xbee8cd55	-0.45469156
127	0x3d318790	0.043342173
128	0x3d1710b0	0.03688115
129	0xbdea0e36	-0.11428492
130	0xbd33e024	-0.04391493
131	0x3d9347ec	0.071914524
132	0x3d6a182a	0.05715195
133	0xbd6f46c0	-0.05841708
134	0xbd071dd2	-0.032987423
135	0xbe05345b	-0.13008253
136	0xbdf0b5ee	-0.1175345
137	0xbdd52e8b	-0.10409268
138	0xbd919ab1	-0.07109583
139	0xbd214ef6	-0.039381944
140	0x3ccaa318	0.024735972
141	0xbd001128	-0.03126636
142	0xbde4f692	-0.11179842
143	0x3c919317	0.017770333
144	0xbbb79d2d	-0.0056034536
145	0xbde82dd9	-0.1133687
146	0xbe245135	-0.16046603
147	0xbdb681a4	-0.08911446
148	0xbd9d77e1	-0.07688881
149	0xbe363bc9	-0.17796244
150	0x3db91e9d	0.09039042
151	0x3c943e0e	0.018095996
152	0xbdbdf9b2	-0.09276141
153	0x3d902bd7	0.07039612
154	0x3d4e6096	0.05038508
155	0x3d1cf211	0.03831679
156	0xbde61c0c	-0.11235818
157	0xbba7facb	-0.0051263324
158	0xbde0decc	-0.10979995
159	0xbc835949	-0.016033785
160	0xbdf893d8	-0.12137574
161	0x3d7f667a	0.06235359
162	0x3d0a8619	0.03381929
163	0x3cbd33da	0.023096014
164	0xbe04cfa4	-0.12969834
165	0xbe30df8d	-0.17272778
166	0x3dd51264	0.10403898
167	0xbde79ac2	-0.113088146
168	0xbcc181e0	-0.0236215
169	0x3c8be3bb	0.017076364
170	0xbd9396ad	-0.072064735
171	0x3d6ac188	0.057313472
172	0xbd2f6660	-0.04282224
173	0xbdc2468d	-0.09486113
174	0x3ce7a5c9	0.028277295
175	0x3be7d994	0.007075498
176	0x3db62b60	0.08894992
177	0xbe10c017	-0.14135776
178	0xbd053be6	-0.032527827
179	0xbe3710e7	-0.17877541
180	0xbe634731	-0.22195126
181	0xbdce0268	-0.10059053
182	0xbe345a3d	-0.17612548
183	0xbcdcd3ff	-0.026956556
184	0xbce96caa	-0.028494198
185	0xbdeef984	-0.11668685
186	0xbcd942fc	-0.026521198
187	0xbe2a1d25	-0.1661268
188	0x3bd138a4	0.006384926
189	0xbd5e7c36	-0.054317676
190	0xbd372a4b	-0.044718068
191	0x3c8e6390	0.01738146
192	0xbd90bcc6	-0.07067256
193	0xbd53a698	-0.051672548
194	0xbdfa7cf8	-0.12230867
195	0xbd830dd5	-0.063991226
196	0xbc885cf2	-0.016645882
197	0xbde59cfa	-0.112115815
198	0xbcbfc994	-0.02341155
199	0x3cd51c02	0.026014332
200	0x3d5d7d5e	0.054074638
201	0x3dcbf2e7	0.09958439
202	0xbd897884	-0.0671244
203	0xbdb8eaf5	-0.090291895
204	0xbe02b4ec	-0.12764329
205	0xbc4cf2e2	-0.01250908
206	0xbd61b2d0	-0.05510217
207	0x3afc68e2	0.0019257332
208	0xbdf1e2d8	-0.11810845
209	0xbc4a1d96	-0.012336155
210	0xbd5b0897	-0.05347499
211	0xbde59039	-0.11209149
212	0xbcb56b2c	-0.02214583
213	0xbdc9b8c6	-0.09849696
214	0x3c659c3e	0.014014302
215	0xbe03fbeb	-0.12889068
216	0xbd717e15	-0.05895813
217	0x3dc586e1	0.09644867
218	0xbd9b837a	-0.075934365
219	0xbd6dc89c	-0.058052644
220	0xbc9ee730	-0.019397348
221	0xbd913146	-0.07089476
222	0xbdc0f5fa	-0.09421916
223	0xbe1dfed4	-0.1542924
224	0x3cc396f0	0.023875684
225	0xbdfda69a	-0.12385292
226	0xbd34b3e9	-0.04411689
227	0xbd38eb4f	-0.045146283
228	0xbd45f3b3	-0.048328113
229	0x3ac3285a	0.0014889345
230	0xbd940bff	-0.072288506
231	0x3c052d2d	0.0081284465
232	0xbd9a1972	-0.075243846
233	0xbd89493d	-0.06703422
234	0xbd38b67d	-0.04509591
235	0xbd807360	-0.06272006
236	0xbcc2a290	-0.023759156
237	0xbb9de962	-0.004819081
238	0xbdd554a8	-0.104165375
239	0x3cf942f4	0.030427434
240	0xbd38a768	-0.045081526
241	0x3cb67262	0.022271339
242	0x3d6a5780	0.057212353
243	0x3ca4509b	0.020057967
244	0xbe3c5a00	-0.18393707
245	0x3d371fec	0.044708177
246	0xbd950f5c	-0.0727832
247	0xbdd6b867	-0.10484391
248	0x3db27ea9	0.08715565
249	0xbde7efe4	-0.113250524
250	0x3b9c2de6	0.0047662137
251	0xbd75456d	-0.059880663
252	0x3cbf5509	0.023355978
253	0x3d553fcc	0.052062795
254	0xbdeafe9f	-0.11474346
255	0xbd928204	-0.07153705

value_stream.0.bias f4 [32]
0	0x40509307	3.2589738
1	0x3fec5311	1.846285
2	0xbc884c98	-0.016638085
3	0xbc742604	-0.014901642
4	0xbfe195ae	-1.7623804
5	0x3fbaa15a	1.458049
6	0xbdd4f5d4	-0.103984505
7	0x3d6ddeea	0.058073916
8	0xbd2a5548	-0.041585237
9	0x3f875c8f	1.0575122
10	0xc0118afd	-2.2741082
11	0x40f12110	7.535286
12	0x3f9d6267	1.2295655
13	0x3f4c587b	0.7982251
14	0xbf807d80	-1.00383
15	0xbdfee9a7	-0.124469094
16	0x3ceb7b9b	0.028745463
17	0xbb2c2981	-0.0026269855
18	0x3fc42f08	1.5326853
19	0x3f964c59	1.174205
20	0xbe166fdb	-0.14691107
21	0xbfe707f9	-1.8049308
22	0x3f454afa	0.7706753
23	0xbd2eb29d	-0.042650808
24	0x3faae261	1.3350335
25	0xc02d1fb2	-2.7050595
26	0xbdc53abd	-0.09630344
27	0xbf088176	-0.5332254
28	0x3f9df745	1.2341086
29	0xbddc2660	-0.10749507
30	0xbe0c69db	-0.13712256
31	0x3d143773	0.036185693

value_stream.2.weight f4 [1, 32]
0	0x4138d9c6	11.553167
1	0x417700c7	15.43769
2	0xba95d145	-0.0011430165
3	0x3a7824aa	0.00094659126
4	0xc10b8f90	-8.722549
5	0x41006a0b	8.025889
6	0xbc746de7	-0.014918781
7	0x3b6fa278	0.0036565345
8	0x3de19aee	0.110158786
9	0x41336e33	11.214404
10	0xc15dc11a	-13.859644
11	0x40bd7912	5.921029
12	0x4139e14d	11.617505
13	0x413f4265	11.95371
14	0xc1a092f0	-20.071747
15	0xbbeb5cae	-0.007182679
16	0x3e0f87ee	0.14016697
17	0xb9eff983	-0.00045771533
18	0x4116b044	9.418034
19	0x413716b5	11.443044
20	0x3d19013e	0.0373547
21	0xc141f2b9	-12.121758
22	0x411f1bd7	9.944297
23	0x3d6e4ea9	0.058180485
24	0x41252162	10.32065
25	0xc1350c66	-11.315527
26	0x3df713d0	0.12064326
27	0xc17352d7	-15.207725
28	0x411ceadc	9.807339
29	0xbc10a328	-0.008827962
30	0xbd5e9fc4	-0.054351583
31	0x3e86b1c9	0.26307514

advantage_stream.0.weight f4 [32, 64]
0	0xbdf45710	-0.11930668
1	0x3f8b686e	1.0891244
2	0xbed6de8d	-0.41966668
3	0xbf312ecf	-0.6921205
4	0xbef9f281	-0.48817828
5	0xbbdc0c83	-0.0067153587
6	0x3f2effe5	0.68359214
7	0xbfcd5b49	-1.6043483
8	0x3ec0b859	0.37640646
9	0xc0a2a279	-5.082333
10	0xbea8fc71	-0.33005098
11	0xbf6c9bab	-0.9242503
12	0x4036f58b	2.8587368
13	0xbf3b95ea	-0.73275626
14	0x3ca6c685	0.020358333
15	0x3d836718	0.06416148
16	0xbeb3f3e8	-0.35147023
17	0xbe229c34	-0.158799
18	0xc065f7e1	-3.5932543
19	0x3f4b8a88	0.79508257
20	0x3dad5f2d	0.08465419
21	0x401b8ad0	2.4303474
22	0xbdc9af1d	-0.09847853
23	0x3da1d617	0.079021625
24	0xc001bec3	-2.0272682
25	0xbdf025a4	-0.117259294
26	0x3f6683f1	0.90045077
27	0x3cdc17fd	0.026866907
28	0x3ce54497	0.027986808
29	0xbeb57c41	-0.3544636
30	0x3e2abf1e	0.16674468
31	0xbdcb02fc	-0.099126786
32	0x3f34edf7	0.70675606
33	0xbbbca3e8	-0.005756844
34	0x3d91b867	0.0711525
35	0x3f681c4c	0.9066818
36	0x3e85d01a	0.2613533
37	0x3f157795	0.5838559
38	0x401e2570	2.471035
39	0xbd3390f8	-0.043839425
40	0x3db8645c	0.09003517
41	0xbdaf12d6	-0.085485145
42	0x3d05c0e2	0.03265465
43	0xbd5f38c5	-0.0544975
44	0xc0c4bb7c	-6.1478863
45	0xbc7bbe6d	-0.015365225
46	0x3f01eb5d	0.5074976
47	0xbfe07f4f	-1.7538851
48	0xbcdc622b	-0.026902279
49	0x3dd75411	0.10514081
50	0xc0307cb3	-2.757611
51	0x3fba06bc	1.4533305
52	0xbf0ca6a2	-0.5494176
53	0x3fbe098e	1.4846666
54	0x3e880618	0.2656715
55	0xc03d0142	-2.9532018
56	0x400f5a90	2.2399025
57	0x401d2898	2.4556026
58	0xc062bd43	-3.5428016
59	0x3f9943b8	1.1973791
60	0xbcf97ec7	-0.03045596
61	0x3efda046	0.4953634
62	0xbf338ca6	-0.7013649
63	0x3ddd8494	0.10816303
64	0x3d3dc568	0.04633084
65	0x3dbc5864	0.09196547
66	0x3dee0ad2	0.116231576
67	0x3cc6dd68	0.024275497
68	0xbd963844	-0.073349506
69	0xbd0cf77c	-0.034415707
70	0xbdbb58a6	-0.09147768
71	0xbd8654ea	-0.06559165
72	0x3ce06a6f	0.027394501
73	0x3de204ba	0.11036058
74	0xbdc28f0e	-0.09499942
75	0xbd925214	-0.071445614
76	0x3ca092c1	0.019601228
77	0xbe204d1e	-0.15654418
78	0xbd93227c	-0.07184312
79	0x3c81d14c	0.01584687
80	0x3b1fb947	0.0024371909
81	0x3d4375f1	0.0477199
82	0xbbb1f3ff	-0.005430698
83	0xbcb85c43	-0.022504931
84	0xbddfca81	-0.109272964
85	0x3d720f6b	0.059096735
86	0x3d9868dd	0.07441876
87	0x3d880f80	0.066435814
88	0xbd933425	-0.0718768
89	0x3d5becd6	0.05369266
90	0xbd9c82a9	-0.07642109
91	0xbdaf6890	-0.085648656
92	0xbdc9f4de	-0.09861158
93	0xbdfa2955	-0.12214915
94	0x3d1c6cb8	0.03818962
95	0x3a0bad6f	0.0005328273
96	0xbe1b9693	-0.15194158
97	0xbdcb36c7	-0.09922557
98	0xbb0f0224	-0.0021821344
99	0x3c1a8c3a	0.009432847
100	0xbdcbe89d	-0.09956477
101	0x3ccaf798	0.024776265
102	0x3d438612	0.04773528
103	0xbd563c4a	-0.05230359
104	0x3d34365c	0.043997154
105	0x3cb479ff	0.022030829
106	0xbdd46545	-0.10370878
107	0x3d54829b	0.051882368
108	0x3da3591e	0.07975982
109	0xbc595334	-0.013264466
110	0xbda97b8d	-0.082755186
111	0xbcdd34b8	-0.027002677
112	0xbdcc8192	-0.09985651
113	0x3d90861a	0.07056828
114	0x3dd3436f	0.10315596
115	0x3dd7d746	0.10539107
116	0xbc0a7ac2	-0.008452119
117	0x3d8901d0	0.06689799
118	0xbe1807e2	-0.14846757
119	0xbd6c0970	-0.057626188
120	0xbd3e188a	-0.04641012
121	0xbdfce4e6	-0.123483464
122	0xbd8a20c0	-0.06744528
123	0xbd3fee8f	-0.046858367
124	0x3c058c79	0.008151167
125	0x3d888962	0.06666829
126	0xbd665786	-0.056235813
127	0xbd7edb14	-0.062220648
128	0xbdf98104	-0.12182811
129	0x4083bf81	4.117127
130	0xbf95e981	-1.1711885
131	0xbe0f9660	-0.14022207
132	0x401241e3	2.2852714
133	0xbe2c16d4	-0.16805583
134	0x3e89310e	0.26795238
135	0x3f2f5106	0.68483007
136	0xbea800a9	-0.32813004
137	0x407719bd	3.860946
138	0xbee1bc6a	-0.4408906
139	0x3f82982f	1.0202693
140	0xbf17d647	-0.59311336
141	0xc0386993	-2.8814437
142	0xbd9218ed	-0.071336605
143	0xbdde9da8	-0.10869914
144	0x3fac9608	1.3483286
145	0x3f6a7ee2	0.9159986
146	0xbe3caec1	-0.18426038
147	0xbf590485	-0.8477252
148	0xbcced309	-0.025247114
149	0x3edd3e87	0.43211767
150	0x3d35c031	0.04437274
151	0x3c2861fa	0.010277266
152	0x3f5375a7	0.826014
153	0x3d341c6b	0.043972414
154	0xc08f0a8a	-4.4700365
155	0xbdd76755	-0.10517756
156	0x38041000	3.1486154e-05
157	0xbf524706	-0.82139623
158	0xc11eb7dc	-9.919888
159	0xc0255e87	-2.5838945
160	0xbd343e5c	-0.044004783
161	0x3ab7b869	0.001401675
162	0x3d858d37	0.06521075
163	0xc0184065	-2.3789303
164	0x3ed6cca1	0.41952994
165	0xc081f04a	-4.060582
166	0x3f844337	1.0333012
167	0x3c8a1e23	0.016860073
168	0x3d9e5174	0.0773038
169	0x3dc6ee55	0.09713427
170	0xbd9358ef	-0.07194697
171	0x3dedc453	0.116097115
172	0x40923fac	4.5702724
173	0x3dfb6ce4	0.122766286
174	0xbe39ef6c	-0.18157738
175	0x3fcd3c8e	1.6034105
176	0x3d21aa54	0.03946908
177	0x3f215178	0.63014936
178	0xbf412969	-0.7545381
179	0xbfdfd203	-1.7485965
180	0x3f84bd5c	1.0370288
181	0x3e36921b	0.17829172
182	0xbdb32878	-0.08747953
183	0x3f887071	1.0659314
184	0xc04a4849	-3.160662
185	0x4052e84c	3.2954283
186	0xbffc482a	-1.9709523
187	0x401be2c9	2.4357169
188	0x3d648d76	0.05579897
189	0xbeef0900	-0.46686554
190	0x3e9048a0	0.28180408
191	0x3d39ad50	0.0453313
192	0x3d39bbd4	0.045345142
193	0x3f897bba	1.0740883
194	0xc039286e	-2.8930926
195	0xc00369fd	-2.053344
196	0xc0732407	-3.799074
197	0xbdbadee7	-0.091245465
198	0x3f387583	0.7205431
199	0x3f1df619	0.6170364
200	0x3ee58f08	0.44835687
201	0xc0e96cd7	-7.294536
202	0xbe494f07	-0.19659053
203	0x3f5d89e3	0.86538523
204	0x406aca03	3.6685798
205	0xbf0c9d4d	-0.5492752
206	0x3da8aefc	0.082365006
207	0x3c1eb1df	0.009685962
208	0xc0a0a6dd	-5.020369
209	0xc015e517	-2.3421075
210	0xbed4aa89	-0.41536358
211	0xc0389541	-2.8841097
212	0x3d2b6d1b	0.041852098
213	0xc00485a9	-2.070658
214	0xbcfebafa	-0.031095017
215	0xbcc9a6d0	-0.024615675
216	0x4099a638	4.8015404
217	0x3ca969e9	0.020680385
218	0xbf8d2e60	-1.1029778
219	0xbddce48d	-0.1078578
220	0xbcd2eba8	-0.025747135
221	0x3fd2c03e	1.6464918
222	0x4018de85	2.3885815
223	0xbfd17605	-1.6364142
224	0x3d74a561	0.05972803
225	0xbd656719	-0.056006525
226	0x3e024f1d	0.12725492
227	0xc01d5a2a	-2.4586282
228	0xbe92dfcc	-0.28686368
229	0xc08c709b	-4.388746
230	0x3f4665c9	0.7749906
231	0xbba99b23	-0.0051759644
232	0xbdf602e0	-0.12012267
233	0x3b80a622	0.0039260546
234	0x3d7e71e9	0.062120352
235	0xbcf7e9b8	-0.030262813
236	0x40c232c3	6.0686965
237	0xbf566038	-0.8374057
238	0xbf850057	-1.0390729
239	0xbea94044	-0.33056843
240	0xbd5f5f5a	-0.054534294
241	0xbdae9858	-0.08525151
242	0xbf4735c0	-0.7781639
243	0x3f1152f7	0.5676722
244	0x3faf3a8a	1.368974
245	0x3f92bc5d	1.1463734
246	0x3eba0a59	0.3633602
247	0xc0301dd2	-2.75182
248	0x3eee61b1	0.46558908
249	0xbdfbc9fd	-0.122943856
250	0x40d1b149	6.5528913
251	0x407084d4	3.7581072
252	0x3dd85fde	0.1056516
253	0xbf99517c	-1.1977992
254	0x3fb97ba5	1.4490858
255	0xbd8222de	-0.06354307

advantage_stream.0.bias f4 [32]
0	0x3f0a23b8	0.5396075
1	0x3c301de7	0.010749317
2	0x3eb3415b	0.350108
3	0x3e26f574	0.1630457
4	0xbf5db000	-0.8659668
5	0x3ec08571	0.37601808
6	0xbe3d5f41	-0.18493368
7	0x3ec0e0e4	0.37671578
8	0xbec527ab	-0.38506827
9	0x3df47e00	0.11938095
10	0x3e96d3e1	0.29458526
11	0xbfa70269	-1.304761
12	0xbf459d37	-0.77193016
13	0x3eb6201b	0.3557137
14	0x3e7ba42c	0.24574345
15	0x3cd14204	0.025544174
16	0x3f5643fa	0.83697474
17	0xbf4080e3	-0.75196666
18	0x3cf97ac2	0.030454043
19	0x3f15a55a	0.5845543
20	0x3c025f7a	0.007957334
21	0x3e4b71cc	0.19867629
22	0xbeb54892	-0.3540693
23	0x3eb11692	0.34587532
24	0xbe178d1e	-0.14799926
25	0x3d3a815c	0.045533523
26	0xbe0d4cc8	-0.13798821
27	0x3ba27148	0.004957352
28	0xbe1238be	-0.14279458
29	0x3eb47d53	0.35251865
30	0x3f666e43	0.90011996
31	0xbd628f07	-0.055312183

advantage_stream.2.weight f4 [36, 32]
0	0x409f6503	4.9810805
1	0xbdc00dee	-0.09377657
2	0xbf8c9449	-1.0982753
3	0x407c7ab8	3.9449902
4	0xc09674d7	-4.7017627
5	0xbf7e92e1	-0.9944287
6	0xbdf010a7	-0.11721926
7	0x40944db9	4.6344876
8	0xbf304cd8	-0.68867254
9	0x4123d5b1	10.239671
10	0x40e68cf8	7.204708
11	0x4082aaf3	4.083368
12	0x40ca87ec	6.329092
13	0xc0477978	-3.1167889
14	0x4104707b	8.277461
15	0x3d18fc1a	0.037349798
16	0xc04573d8	-3.0851955
17	0xc0968036	-4.7031507
18	0xbdd076ff	-0.10178947
19	0x40a63925	5.1944757
20	0xbd1032a6	-0.035204552
21	0x3fcd099e	1.601856
22	0xc05919fd	-3.3922112
23	0xc079e6d8	-3.9047146
24	0x40d72537	6.723293
25	0xbfd71faf	-1.6806544
26	0xbccc365e	-0.024928268
27	0x3d50ec67	0.0510067
28	0x3e1344a7	0.14381658
29	0x41256c21	10.338899
30	0x410161c6	8.08637
31	0x3df7b26c	0.12094578
32	0x408de1c4	4.4338093
33	0x3e34c4ae	0.17653152
34	0xc0705f71	-3.7558253
35	0xc15c072d	-13.751752
36	0xc0b08968	-5.516773
37	0xbf000461	-0.5000668
38	0x3d0654a9	0.032795582
39	0x3ff798c1	1.9343492
40	0xc03ef836	-2.9838996
41	0x40c863e0	6.262192
42	0xc082f729	-4.092671
43	0x413ac04e	11.671949
44	0x40b3b184	5.6154194
45	0xbfc1fa95	-1.5154597
46	0x403f7c35	2.991956
47	0x3d12ee04	0.03587152
48	0x3f7417dd	0.9534891
49	0x4095f2db	4.6858954
50	0xbcb44178	-0.022003874
51	0x4084f914	4.155405
52	0x3d8e62d3	0.06952443
53	0xc16a8e1d	-14.659696
54	0x3f919bb8	1.1375647
55	0x3fa86bd1	1.3157903
56	0x40178715	2.3676198
57	0xc1a12bd1	-20.146395
58	0x3cbe24e8	0.023210958
59	0x3e11d89b	0.14242785
60	0x3da36cf6	0.07979767
61	0xc1406b57	-12.026206
62	0xc0e4cae7	-7.1497684
63	0x3e5ee20a	0.21765915
64	0x40028d27	2.0398653
65	0x3a914ffa	0.0011086457
66	0xbf71a470	-0.94391537
67	0x3dc63828	0.0967868
68	0xbfb5b107	-1.419465
69	0xbe3a209b	-0.181765
70	0xbd06432a	-0.032778896
71	0x40031c54	2.048604
72	0xbf06b7e8	-0.5262437
73	0x407c7c63	3.945092
74	0x3fc31459	1.5240585
75	0x4090f445	4.529818
76	0x40444554	3.0667315
77	0xbf637ea8	-0.8886514
78	0x40882966	4.2550535
79	0x3e1e2c8c	0.15446681
80	0x3f43e1d0	0.7651644
81	0x404b1ac5	3.173509
82	0xbdc36319	-0.09540386
83	0x404a82a8	3.1642246
84	0xbd58af86	-0.052901767
85	0xbf40e376	-0.7534708
86	0x3faa7702	1.3317568
87	0x4001f2cf	2.0304449
88	0x404684f9	3.101866
89	0xc06af6b4	-3.6713076
90	0xbd1ce6da	-0.038306095
91	0x3d98adbc	0.07455012
92	0xbcf94489	-0.030428188
93	0x40759426	3.8371673
94	0xbf8d169f	-1.1022528
95	0x3c1021a4	0.008797083
96	0x40027b79	2.0387862
97	0xbd0a581e	-0.03377544
98	0xc0272084	-2.6113596
99	0xc14e9809	-12.912118
100	0xc098d4ab	-4.7759604
101	0x3f65bf4c	0.8974502
102	0x3e19398d	0.1496336
103	0xbec8ba28	-0.39204526
104	0xc00d7149	-2.2100394
105	0x40b5a065	5.6758294
106	0xc055305a	-3.3310761
107	0x412da73f	10.853332
108	0x406aa2eb	3.6661937
109	0xbf826932	-1.0188353
110	0xc0149b76	-2.3219886
111	0x3db83e96	0.08996312
112	0x401ff344	2.4992228
113	0x40805a51	4.011025
114	0x3d6e28ef	0.058144506
115	0x400361c6	2.0528426
116	0xbda6d103	-0.081453346
117	0xc1436558	-12.212242
118	0x3fff6164	1.9951596
119	0x408a7886	4.3272123
120	0x3e1b9f24	0.15197426
121	0xc1974ca6	-18.912426
122	0xbd22fffa	-0.0397949
123	0xbca31f7c	-0.019912474
124	0xbdc64edb	-0.09683009
125	0xc14853ff	-12.520507
126	0xc10d10ca	-8.816599
127	0xbde35d72	-0.11101808
128	0x3fda2551	1.7042638
129	0xbe0a9bf7	-0.13536058
130	0xbe457ded	-0.19286318
131	0xc127d692	-10.489885
132	0xc0848092	-4.1406946
133	0x3fad8e76	1.3559101
134	0x3e153c83	0.14573865
135	0xbe4ddbd3	-0.20103388
136	0xbf8f6685	-1.1203161
137	0x406f8f90	3.7431374
138	0xc0971f16	-4.7225447
139	0x411ccc85	9.799932
140	0x408cc7b9	4.39938
141	0xbf27d41b	-0.6555802
142	0xc0845418	-4.1352654
143	0x3d27e1ee	0.040986948
144	0x4005ffb7	2.0937326
145	0x4085d485	4.1821923
146	0x3e269087	0.1626607
147	0x3fda1b4f	1.7039584
148	0xbe25c49a	-0.16188279
149	0xc11c7c68	-9.780373
150	0x40834ee3	4.1033797
151	0x4081ada1	4.052445
152	0xbe5b0f85	-0.21392639
153	0xc155de38	-13.366753
154	0xbcb3eb50	-0.021962792
155	0x3dc142c4	0.09436563
156	0x3e0e8adc	0.13920158
157	0xc12d7596	-10.8412075
158	0xc1365362	-11.395357
159	0x3e24d346	0.1609622
160	0xbf9063ab	-1.1280416
161	0x3e25985f	0.16171406
162	0x409ff09f	4.9981227
163	0x410c1f90	8.757706
164	0x40d499cb	6.6437736
165	0x40429e8f	3.0409276
166	0x3e36f87b	0.17868225
167	0xc01cb563	-2.448571
168	0x40c23ea6	6.0701475
169	0xbfdcd80f	-1.7253436
170	0xc0c14806	-6.040042
171	0x40474960	3.1138535
172	0xbffef421	-1.9918252
173	0x40a93baa	5.288533
174	0xc0bd168c	-5.9090023
175	0xbd52ac32	-0.05143375
176	0x409c7a1b	4.8899055
177	0x4003706d	2.053737
178	0xbdd9ee38	-0.1064114
179	0xc056f55a	-3.358725
180	0x3e01011b	0.12598078
181	0x4085d172	4.181817
182	0x409bae9a	4.8650637
183	0x40c75cb7	6.2300677
184	0xbf0bf6da	-0.5467354
185	0x40b8c67a	5.774228
186	0xbe2bdcc5	-0.16783436
187	0xbb6f777b	-0.0036539722
188	0xbd127aab	-0.035761517
189	0xc0de793e	-6.9523
190	0x3f92bb83	1.1463474
191	0x3d83cd24	0.06435612
192	0x4082e9ff	4.091064
193	0x3dac8850	0.08424437
194	0xc0609fe7	-3.5097597
195	0xc10bc1e6	-8.7348385
196	0xc0a18d07	-5.0484653
197	0xbf1f4cc0	-0.62226486
198	0x3e4dcc44	0.20097452
199	0x406fe712	3.7484784
200	0xc03ba8b0	-2.9321709
201	0x40bfe473	5.996637
202	0x402e2285	2.720857
203	0x40ed4847	7.415073
204	0x40c1224d	6.035437
205	0xc07a6d0a	-3.9129052
206	0x40ca132a	6.3148394
207	0x3dadd0df	0.084871046
208	0xbf2f7ca7	-0.6854958
209	0xbf57b177	-0.84255165
210	0x3e0e07ba	0.13870135
211	0x40b991ff	5.799072
212	0xbe352252	-0.17688873
213	0xc0f60a31	-7.688744
214	0xbf86de22	-1.053654
215	0xbffa8cf5	-1.9574267
216	0x4096ef97	4.716747
217	0xc1278bc9	-10.471627
218	0xbda28f8a	-0.07937534
219	0x3a8c4afb	0.0010703498
220	0x3e142ec3	0.14470963
221	0xbf8d7a8c	-1.1053023
222	0xbfbc5feb	-1.4716772
223	0x3e03c1f5	0.12866957
224	0x40619ff5	3.525388
225	0x3e1495de	0.14510295
226	0xc057edd8	-3.3738918
227	0xc12767bb	-10.462825
228	0xc083c4e6	-4.1177855
229	0xbe5e64f1	-0.21718194
230	0x3bdaca86	0.0066769747
231	0x4005b7e8	2.0893497
232	0xbf5c9cf8	-0.86177015
233	0x40b954d9	5.7916074
234	0xbffc896c	-1.9729438
235	0x40cb1830	6.3467026
236	0x40cad147	6.3380466
237	0xc082e5d9	-4.0905576
238	0x405400a2	3.3125386
239	0xbdd74b66	-0.10512428
240	0x3f169ab9	0.5882984
241	0x3f9393b2	1.1529448
242	0xbda9b113	-0.08285727
243	0x40a9019f	5.281448
244	0x3df446f0	0.11927593
245	0xc125b684	-10.3570595
246	0xbf9cfb30	-1.2264156
247	0x403e644f	2.9748724
248	0x406ee21e	3.732551
249	0xc18c9038	-17.57042
250	0x3c8430b2	0.016136501
251	0x3ce4c0c4	0.027923949
252	0xbd987e47	-0.074459605
253	0xc1098981	-8.59607
254	0xc0da8bad	-6.8295503
255	0xbd95fc0d	-0.073234655

advantage_stream.2.bias f4 [36]
0	0x3fbd1448	1.4771814
1	0x406e0043	3.718766
2	0xc0762108	-3.845766
3	0x40228909	2.539614
4	0x40facb9a	7.8373537
5	0x40a80664	5.25078
6	0x4053f2cb	3.311694
7	0x40199068	2.3994389
8	0xbd9dc77d	-0.07704065
9	0xbf418933	-0.75599974
10	0x4090d739	4.5262723
11	0x400dd11d	2.2158883
12	0x40c0cf2b	6.025289
13	0x408c70e0	4.3887787
14	0x3f33b5a0	0.7019901
15	0xc0985906	-4.760867
16	0x406cca5b	3.6998508
17	0x404727b8	3.1117992
18	0x40e2060d	7.0632386
19	0x409bc089	4.867253
20	0x3e40db99	0.1883377
21	0x3fafee32	1.3744566
22	0x40b64a56	5.696574
23	0x40b4ee6d	5.6541047
24	0x4100a34d	8.039868
25	0x4090421b	4.5080695
26	0xc02b05c2	-2.6722264
27	0xbf4420d5	-0.766126
28	0x40d09110	6.517708
29	0x41097057	8.589927
30	0x40b3e13f	5.621246
31	0x409e5213	4.947519
32	0x4063204f	3.548847
33	0xc006a297	-2.1036737
34	0x3fa55202	1.2915652
35	0x40dd140b	6.9086967
